5

>>> Start the following setting at Fri 24 Nov 19:20:28 GMT 2017: 
	input=/home/zqz/Work/chase/data/ml/ml/rm/labeled_data_all.csv output=/home/zqz/Work/chase/output dataset=rm model_desc=f_(conv1d=100-[3],so),lstm=100-True,gmaxpooling1d,dense=2-softmax
== Perform ANN ...
fitting model...
submodel:
_________________________________________________________________
Layer (type)                 Output Shape              Param #   
=================================================================
embedding_1_input (InputLaye (None, 100)               0         
_________________________________________________________________
embedding_1 (Embedding)      (None, 100, 300)          277200    
_________________________________________________________________
dropout_1 (Dropout)          (None, 100, 300)          0         
_________________________________________________________________
skip_conv1d_1 (SkipConv1D)   (None, 100, 100)          90100     
_________________________________________________________________
max_pooling1d_1 (MaxPooling1 (None, 25, 100)           0         
=================================================================
Total params: 367,300.0
Trainable params: 367,300.0
Non-trainable params: 0.0
_________________________________________________________________


_________________________________________________________________
Layer (type)                 Output Shape              Param #   
=================================================================
model_1 (Model)              (None, 25, 100)           367300    
_________________________________________________________________
lstm_1 (LSTM)                (None, 25, 100)           80400     
_________________________________________________________________
global_max_pooling1d_1 (Glob (None, 100)               0         
_________________________________________________________________
dense_1 (Dense)              (None, 2)                 202       
=================================================================
Total params: 447,902.0
Trainable params: 447,902.0
Non-trainable params: 0.0
_________________________________________________________________
_________________________________________________________________
Layer (type)                 Output Shape              Param #   
=================================================================
model_1 (Model)              (None, 25, 100)           367300    
_________________________________________________________________
lstm_1 (LSTM)                (None, 25, 100)           80400     
_________________________________________________________________
global_max_pooling1d_1 (Glob (None, 100)               0         
_________________________________________________________________
dense_1 (Dense)              (None, 2)                 202       
=================================================================
Total params: 447,902.0
Trainable params: 447,902.0
Non-trainable params: 0.0
_________________________________________________________________
submodel:
_________________________________________________________________
Layer (type)                 Output Shape              Param #   
=================================================================
embedding_1_input (InputLaye (None, 100)               0         
_________________________________________________________________
embedding_1 (Embedding)      (None, 100, 300)          277200    
_________________________________________________________________
dropout_1 (Dropout)          (None, 100, 300)          0         
_________________________________________________________________
skip_conv1d_1 (SkipConv1D)   (None, 100, 100)          90100     
_________________________________________________________________
max_pooling1d_1 (MaxPooling1 (None, 25, 100)           0         
=================================================================
Total params: 367,300.0
Trainable params: 367,300.0
Non-trainable params: 0.0
_________________________________________________________________


_________________________________________________________________
Layer (type)                 Output Shape              Param #   
=================================================================
model_1 (Model)              (None, 25, 100)           367300    
_________________________________________________________________
lstm_1 (LSTM)                (None, 25, 100)           80400     
_________________________________________________________________
global_max_pooling1d_1 (Glob (None, 100)               0         
_________________________________________________________________
dense_1 (Dense)              (None, 2)                 202       
=================================================================
Total params: 447,902.0
Trainable params: 447,902.0
Non-trainable params: 0.0
_________________________________________________________________
_________________________________________________________________
Layer (type)                 Output Shape              Param #   
=================================================================
model_1 (Model)              (None, 25, 100)           367300    
_________________________________________________________________
lstm_1 (LSTM)                (None, 25, 100)           80400     
_________________________________________________________________
global_max_pooling1d_1 (Glob (None, 100)               0         
_________________________________________________________________
dense_1 (Dense)              (None, 2)                 202       
=================================================================
Total params: 447,902.0
Trainable params: 447,902.0
Non-trainable params: 0.0
_________________________________________________________________
submodel:
_________________________________________________________________
Layer (type)                 Output Shape              Param #   
=================================================================
embedding_2_input (InputLaye (None, 100)               0         
_________________________________________________________________
embedding_2 (Embedding)      (None, 100, 300)          277200    
_________________________________________________________________
dropout_2 (Dropout)          (None, 100, 300)          0         
_________________________________________________________________
skip_conv1d_2 (SkipConv1D)   (None, 100, 100)          90100     
_________________________________________________________________
max_pooling1d_2 (MaxPooling1 (None, 25, 100)           0         
=================================================================
Total params: 367,300.0
Trainable params: 367,300.0
Non-trainable params: 0.0
_________________________________________________________________


_________________________________________________________________
Layer (type)                 Output Shape              Param #   
=================================================================
model_2 (Model)              (None, 25, 100)           367300    
_________________________________________________________________
lstm_2 (LSTM)                (None, 25, 100)           80400     
_________________________________________________________________
global_max_pooling1d_2 (Glob (None, 100)               0         
_________________________________________________________________
dense_2 (Dense)              (None, 2)                 202       
=================================================================
Total params: 447,902.0
Trainable params: 447,902.0
Non-trainable params: 0.0
_________________________________________________________________
_________________________________________________________________
Layer (type)                 Output Shape              Param #   
=================================================================
model_2 (Model)              (None, 25, 100)           367300    
_________________________________________________________________
lstm_2 (LSTM)                (None, 25, 100)           80400     
_________________________________________________________________
global_max_pooling1d_2 (Glob (None, 100)               0         
_________________________________________________________________
dense_2 (Dense)              (None, 2)                 202       
=================================================================
Total params: 447,902.0
Trainable params: 447,902.0
Non-trainable params: 0.0
_________________________________________________________________
submodel:
_________________________________________________________________
Layer (type)                 Output Shape              Param #   
=================================================================
embedding_1_input (InputLaye (None, 100)               0         
_________________________________________________________________
embedding_1 (Embedding)      (None, 100, 300)          277200    
_________________________________________________________________
dropout_1 (Dropout)          (None, 100, 300)          0         
_________________________________________________________________
skip_conv1d_1 (SkipConv1D)   (None, 100, 100)          90100     
_________________________________________________________________
max_pooling1d_1 (MaxPooling1 (None, 25, 100)           0         
=================================================================
Total params: 367,300.0
Trainable params: 367,300.0
Non-trainable params: 0.0
_________________________________________________________________


_________________________________________________________________
Layer (type)                 Output Shape              Param #   
=================================================================
model_1 (Model)              (None, 25, 100)           367300    
_________________________________________________________________
lstm_1 (LSTM)                (None, 25, 100)           80400     
_________________________________________________________________
global_max_pooling1d_1 (Glob (None, 100)               0         
_________________________________________________________________
dense_1 (Dense)              (None, 2)                 202       
=================================================================
Total params: 447,902.0
Trainable params: 447,902.0
Non-trainable params: 0.0
_________________________________________________________________
_________________________________________________________________
Layer (type)                 Output Shape              Param #   
=================================================================
model_1 (Model)              (None, 25, 100)           367300    
_________________________________________________________________
lstm_1 (LSTM)                (None, 25, 100)           80400     
_________________________________________________________________
global_max_pooling1d_1 (Glob (None, 100)               0         
_________________________________________________________________
dense_1 (Dense)              (None, 2)                 202       
=================================================================
Total params: 447,902.0
Trainable params: 447,902.0
Non-trainable params: 0.0
_________________________________________________________________
submodel:
_________________________________________________________________
Layer (type)                 Output Shape              Param #   
=================================================================
embedding_2_input (InputLaye (None, 100)               0         
_________________________________________________________________
embedding_2 (Embedding)      (None, 100, 300)          277200    
_________________________________________________________________
dropout_2 (Dropout)          (None, 100, 300)          0         
_________________________________________________________________
skip_conv1d_2 (SkipConv1D)   (None, 100, 100)          90100     
_________________________________________________________________
max_pooling1d_2 (MaxPooling1 (None, 25, 100)           0         
=================================================================
Total params: 367,300.0
Trainable params: 367,300.0
Non-trainable params: 0.0
_________________________________________________________________


_________________________________________________________________
Layer (type)                 Output Shape              Param #   
=================================================================
model_2 (Model)              (None, 25, 100)           367300    
_________________________________________________________________
lstm_2 (LSTM)                (None, 25, 100)           80400     
_________________________________________________________________
global_max_pooling1d_2 (Glob (None, 100)               0         
_________________________________________________________________
dense_2 (Dense)              (None, 2)                 202       
=================================================================
Total params: 447,902.0
Trainable params: 447,902.0
Non-trainable params: 0.0
_________________________________________________________________
_________________________________________________________________
Layer (type)                 Output Shape              Param #   
=================================================================
model_2 (Model)              (None, 25, 100)           367300    
_________________________________________________________________
lstm_2 (LSTM)                (None, 25, 100)           80400     
_________________________________________________________________
global_max_pooling1d_2 (Glob (None, 100)               0         
_________________________________________________________________
dense_2 (Dense)              (None, 2)                 202       
=================================================================
Total params: 447,902.0
Trainable params: 447,902.0
Non-trainable params: 0.0
_________________________________________________________________
submodel:
_________________________________________________________________
Layer (type)                 Output Shape              Param #   
=================================================================
embedding_3_input (InputLaye (None, 100)               0         
_________________________________________________________________
embedding_3 (Embedding)      (None, 100, 300)          277200    
_________________________________________________________________
dropout_3 (Dropout)          (None, 100, 300)          0         
_________________________________________________________________
skip_conv1d_3 (SkipConv1D)   (None, 100, 100)          90100     
_________________________________________________________________
max_pooling1d_3 (MaxPooling1 (None, 25, 100)           0         
=================================================================
Total params: 367,300.0
Trainable params: 367,300.0
Non-trainable params: 0.0
_________________________________________________________________


_________________________________________________________________
Layer (type)                 Output Shape              Param #   
=================================================================
model_3 (Model)              (None, 25, 100)           367300    
_________________________________________________________________
lstm_3 (LSTM)                (None, 25, 100)           80400     
_________________________________________________________________
global_max_pooling1d_3 (Glob (None, 100)               0         
_________________________________________________________________
dense_3 (Dense)              (None, 2)                 202       
=================================================================
Total params: 447,902.0
Trainable params: 447,902.0
Non-trainable params: 0.0
_________________________________________________________________
_________________________________________________________________
Layer (type)                 Output Shape              Param #   
=================================================================
model_3 (Model)              (None, 25, 100)           367300    
_________________________________________________________________
lstm_3 (LSTM)                (None, 25, 100)           80400     
_________________________________________________________________
global_max_pooling1d_3 (Glob (None, 100)               0         
_________________________________________________________________
dense_3 (Dense)              (None, 2)                 202       
=================================================================
Total params: 447,902.0
Trainable params: 447,902.0
Non-trainable params: 0.0
_________________________________________________________________
submodel:
_________________________________________________________________
Layer (type)                 Output Shape              Param #   
=================================================================
embedding_4_input (InputLaye (None, 100)               0         
_________________________________________________________________
embedding_4 (Embedding)      (None, 100, 300)          277200    
_________________________________________________________________
dropout_4 (Dropout)          (None, 100, 300)          0         
_________________________________________________________________
skip_conv1d_4 (SkipConv1D)   (None, 100, 100)          90100     
_________________________________________________________________
max_pooling1d_4 (MaxPooling1 (None, 25, 100)           0         
=================================================================
Total params: 367,300.0
Trainable params: 367,300.0
Non-trainable params: 0.0
_________________________________________________________________


_________________________________________________________________
Layer (type)                 Output Shape              Param #   
=================================================================
model_4 (Model)              (None, 25, 100)           367300    
_________________________________________________________________
lstm_4 (LSTM)                (None, 25, 100)           80400     
_________________________________________________________________
global_max_pooling1d_4 (Glob (None, 100)               0         
_________________________________________________________________
dense_4 (Dense)              (None, 2)                 202       
=================================================================
Total params: 447,902.0
Trainable params: 447,902.0
Non-trainable params: 0.0
_________________________________________________________________
_________________________________________________________________
Layer (type)                 Output Shape              Param #   
=================================================================
model_4 (Model)              (None, 25, 100)           367300    
_________________________________________________________________
lstm_4 (LSTM)                (None, 25, 100)           80400     
_________________________________________________________________
global_max_pooling1d_4 (Glob (None, 100)               0         
_________________________________________________________________
dense_4 (Dense)              (None, 2)                 202       
=================================================================
Total params: 447,902.0
Trainable params: 447,902.0
Non-trainable params: 0.0
_________________________________________________________________
submodel:
_________________________________________________________________
Layer (type)                 Output Shape              Param #   
=================================================================
embedding_5_input (InputLaye (None, 100)               0         
_________________________________________________________________
embedding_5 (Embedding)      (None, 100, 300)          277200    
_________________________________________________________________
dropout_5 (Dropout)          (None, 100, 300)          0         
_________________________________________________________________
skip_conv1d_5 (SkipConv1D)   (None, 100, 100)          90100     
_________________________________________________________________
max_pooling1d_5 (MaxPooling1 (None, 25, 100)           0         
=================================================================
Total params: 367,300.0
Trainable params: 367,300.0
Non-trainable params: 0.0
_________________________________________________________________


_________________________________________________________________
Layer (type)                 Output Shape              Param #   
=================================================================
model_5 (Model)              (None, 25, 100)           367300    
_________________________________________________________________
lstm_5 (LSTM)                (None, 25, 100)           80400     
_________________________________________________________________
global_max_pooling1d_5 (Glob (None, 100)               0         
_________________________________________________________________
dense_5 (Dense)              (None, 2)                 202       
=================================================================
Total params: 447,902.0
Trainable params: 447,902.0
Non-trainable params: 0.0
_________________________________________________________________
_________________________________________________________________
Layer (type)                 Output Shape              Param #   
=================================================================
model_5 (Model)              (None, 25, 100)           367300    
_________________________________________________________________
lstm_5 (LSTM)                (None, 25, 100)           80400     
_________________________________________________________________
global_max_pooling1d_5 (Glob (None, 100)               0         
_________________________________________________________________
dense_5 (Dense)              (None, 2)                 202       
=================================================================
Total params: 447,902.0
Trainable params: 447,902.0
Non-trainable params: 0.0
_________________________________________________________________
submodel:
_________________________________________________________________
Layer (type)                 Output Shape              Param #   
=================================================================
embedding_6_input (InputLaye (None, 100)               0         
_________________________________________________________________
embedding_6 (Embedding)      (None, 100, 300)          277200    
_________________________________________________________________
dropout_6 (Dropout)          (None, 100, 300)          0         
_________________________________________________________________
skip_conv1d_6 (SkipConv1D)   (None, 100, 100)          90100     
_________________________________________________________________
max_pooling1d_6 (MaxPooling1 (None, 25, 100)           0         
=================================================================
Total params: 367,300.0
Trainable params: 367,300.0
Non-trainable params: 0.0
_________________________________________________________________


_________________________________________________________________
Layer (type)                 Output Shape              Param #   
=================================================================
model_6 (Model)              (None, 25, 100)           367300    
_________________________________________________________________
lstm_6 (LSTM)                (None, 25, 100)           80400     
_________________________________________________________________
global_max_pooling1d_6 (Glob (None, 100)               0         
_________________________________________________________________
dense_6 (Dense)              (None, 2)                 202       
=================================================================
Total params: 447,902.0
Trainable params: 447,902.0
Non-trainable params: 0.0
_________________________________________________________________
_________________________________________________________________
Layer (type)                 Output Shape              Param #   
=================================================================
model_6 (Model)              (None, 25, 100)           367300    
_________________________________________________________________
lstm_6 (LSTM)                (None, 25, 100)           80400     
_________________________________________________________________
global_max_pooling1d_6 (Glob (None, 100)               0         
_________________________________________________________________
dense_6 (Dense)              (None, 2)                 202       
=================================================================
Total params: 447,902.0
Trainable params: 447,902.0
Non-trainable params: 0.0
_________________________________________________________________
complete 2017-11-24 19:30:44.198256
<<< completed at Fri 24 Nov 19:30:45 GMT 2017: 

>>> Start the following setting at Fri 24 Nov 19:30:45 GMT 2017: 
	input=/home/zqz/Work/chase/data/ml/ml/rm/labeled_data_all.csv output=/home/zqz/Work/chase/output dataset=rm model_desc=f_(conv1d=100-[4],so),lstm=100-True,gmaxpooling1d,dense=2-softmax
== Perform ANN ...
fitting model...
submodel:
____________________________________________________________________________________________________
Layer (type)                     Output Shape          Param #     Connected to                     
====================================================================================================
embedding_1_input (InputLayer)   (None, 100)           0                                            
____________________________________________________________________________________________________
embedding_1 (Embedding)          (None, 100, 300)      277200                                       
____________________________________________________________________________________________________
dropout_1 (Dropout)              (None, 100, 300)      0                                            
____________________________________________________________________________________________________
dropout_2 (Dropout)              (None, 100, 300)      0                                            
____________________________________________________________________________________________________
dropout_3 (Dropout)              (None, 100, 300)      0                                            
____________________________________________________________________________________________________
skip_conv1d_1 (SkipConv1D)       (None, 100, 100)      120100                                       
____________________________________________________________________________________________________
skip_conv1d_2 (SkipConv1D)       (None, 100, 100)      120100                                       
____________________________________________________________________________________________________
skip_conv1d_3 (SkipConv1D)       (None, 100, 100)      120100                                       
____________________________________________________________________________________________________
max_pooling1d_1 (MaxPooling1D)   (None, 25, 100)       0                                            
____________________________________________________________________________________________________
max_pooling1d_2 (MaxPooling1D)   (None, 25, 100)       0                                            
____________________________________________________________________________________________________
max_pooling1d_3 (MaxPooling1D)   (None, 25, 100)       0                                            
____________________________________________________________________________________________________
concatenate_1 (Concatenate)      (None, 75, 100)       0                                            
====================================================================================================
Total params: 637,500.0
Trainable params: 637,500.0
Non-trainable params: 0.0
____________________________________________________________________________________________________


_________________________________________________________________
Layer (type)                 Output Shape              Param #   
=================================================================
model_1 (Model)              (None, 75, 100)           637500    
_________________________________________________________________
lstm_1 (LSTM)                (None, 75, 100)           80400     
_________________________________________________________________
global_max_pooling1d_1 (Glob (None, 100)               0         
_________________________________________________________________
dense_1 (Dense)              (None, 2)                 202       
=================================================================
Total params: 718,102.0
Trainable params: 718,102.0
Non-trainable params: 0.0
_________________________________________________________________
_________________________________________________________________
Layer (type)                 Output Shape              Param #   
=================================================================
model_1 (Model)              (None, 75, 100)           637500    
_________________________________________________________________
lstm_1 (LSTM)                (None, 75, 100)           80400     
_________________________________________________________________
global_max_pooling1d_1 (Glob (None, 100)               0         
_________________________________________________________________
dense_1 (Dense)              (None, 2)                 202       
=================================================================
Total params: 718,102.0
Trainable params: 718,102.0
Non-trainable params: 0.0
_________________________________________________________________
submodel:
____________________________________________________________________________________________________
Layer (type)                     Output Shape          Param #     Connected to                     
====================================================================================================
embedding_2_input (InputLayer)   (None, 100)           0                                            
____________________________________________________________________________________________________
embedding_2 (Embedding)          (None, 100, 300)      277200                                       
____________________________________________________________________________________________________
dropout_4 (Dropout)              (None, 100, 300)      0                                            
____________________________________________________________________________________________________
dropout_5 (Dropout)              (None, 100, 300)      0                                            
____________________________________________________________________________________________________
dropout_6 (Dropout)              (None, 100, 300)      0                                            
____________________________________________________________________________________________________
skip_conv1d_4 (SkipConv1D)       (None, 100, 100)      120100                                       
____________________________________________________________________________________________________
skip_conv1d_5 (SkipConv1D)       (None, 100, 100)      120100                                       
____________________________________________________________________________________________________
skip_conv1d_6 (SkipConv1D)       (None, 100, 100)      120100                                       
____________________________________________________________________________________________________
max_pooling1d_4 (MaxPooling1D)   (None, 25, 100)       0                                            
____________________________________________________________________________________________________
max_pooling1d_5 (MaxPooling1D)   (None, 25, 100)       0                                            
____________________________________________________________________________________________________
max_pooling1d_6 (MaxPooling1D)   (None, 25, 100)       0                                            
____________________________________________________________________________________________________
concatenate_2 (Concatenate)      (None, 75, 100)       0                                            
====================================================================================================
Total params: 637,500.0
Trainable params: 637,500.0
Non-trainable params: 0.0
____________________________________________________________________________________________________


_________________________________________________________________
Layer (type)                 Output Shape              Param #   
=================================================================
model_2 (Model)              (None, 75, 100)           637500    
_________________________________________________________________
lstm_2 (LSTM)                (None, 75, 100)           80400     
_________________________________________________________________
global_max_pooling1d_2 (Glob (None, 100)               0         
_________________________________________________________________
dense_2 (Dense)              (None, 2)                 202       submodel:
____________________________________________________________________________________________________
Layer (type)                     Output Shape          Param #     Connected to                     
====================================================================================================
embedding_1_input (InputLayer)   (None, 100)           0                                            
____________________________________________________________________________________________________
embedding_1 (Embedding)          (None, 100, 300)      277200                                       
____________________________________________________________________________________________________
dropout_1 (Dropout)              (None, 100, 300)      0                                            
____________________________________________________________________________________________________
dropout_2 (Dropout)              (None, 100, 300)      0                                            
____________________________________________________________________________________________________
dropout_3 (Dropout)              (None, 100, 300)      0                                            
____________________________________________________________________________________________________
skip_conv1d_1 (SkipConv1D)       (None, 100, 100)      120100                                       
____________________________________________________________________________________________________
skip_conv1d_2 (SkipConv1D)       (None, 100, 100)      120100                                       
____________________________________________________________________________________________________
skip_conv1d_3 (SkipConv1D)       (None, 100, 100)      120100                                       
____________________________________________________________________________________________________
max_pooling1d_1 (MaxPooling1D)   (None, 25, 100)       0                                            
____________________________________________________________________________________________________
max_pooling1d_2 (MaxPooling1D)   (None, 25, 100)       0                                            
____________________________________________________________________________________________________
max_pooling1d_3 (MaxPooling1D)   (None, 25, 100)       0                                            
____________________________________________________________________________________________________
concatenate_1 (Concatenate)      (None, 75, 100)       0                                            
====================================================================================================
Total params: 637,500.0
Trainable params: 637,500.0
Non-trainable params: 0.0
____________________________________________________________________________________________________


_________________________________________________________________
Layer (type)                 Output Shape              Param #   
=================================================================
model_1 (Model)              (None, 75, 100)           637500    
_________________________________________________________________
lstm_1 (LSTM)                (None, 75, 100)           80400     
_________________________________________________________________
global_max_pooling1d_1 (Glob (None, 100)               0         
_________________________________________________________________
dense_1 (Dense)              (None, 2)                 202       
=================================================================
Total params: 718,102.0
Trainable params: 718,102.0
Non-trainable params: 0.0
_________________________________________________________________
_________________________________________________________________
Layer (type)                 Output Shape              Param #   
=================================================================
model_1 (Model)              (None, 75, 100)           637500    
_________________________________________________________________
lstm_1 (LSTM)                (None, 75, 100)           80400     
_________________________________________________________________
global_max_pooling1d_1 (Glob (None, 100)               0         
_________________________________________________________________
dense_1 (Dense)              (None, 2)                 202       
=================================================================
Total params: 718,102.0
Trainable params: 718,102.0
Non-trainable params: 0.0
_________________________________________________________________
submodel:
____________________________________________________________________________________________________
Layer (type)                     Output Shape          Param #     Connected to                     
====================================================================================================
embedding_1_input (InputLayer)   (None, 100)           0                                            
____________________________________________________________________________________________________
embedding_1 (Embedding)          (None, 100, 300)      277200                                       
____________________________________________________________________________________________________
dropout_1 (Dropout)              (None, 100, 300)      0                                            
____________________________________________________________________________________________________
dropout_2 (Dropout)              (None, 100, 300)      0                                            
____________________________________________________________________________________________________
dropout_3 (Dropout)              (None, 100, 300)      0                                            
____________________________________________________________________________________________________
skip_conv1d_1 (SkipConv1D)       (None, 100, 100)      120100                                       
____________________________________________________________________________________________________
skip_conv1d_2 (SkipConv1D)       (None, 100, 100)      120100                                       
____________________________________________________________________________________________________
skip_conv1d_3 (SkipConv1D)       (None, 100, 100)      120100                                       
____________________________________________________________________________________________________
max_pooling1d_1 (MaxPooling1D)   (None, 25, 100)       0                                            
____________________________________________________________________________________________________
max_pooling1d_2 (MaxPooling1D)   (None, 25, 100)       0                                            
____________________________________________________________________________________________________
max_pooling1d_3 (MaxPooling1D)   (None, 25, 100)       0                                            
____________________________________________________________________________________________________
concatenate_1 (Concatenate)      (None, 75, 100)       0                                            
====================================================================================================
Total params: 637,500.0
Trainable params: 637,500.0
Non-trainable params: 0.0
____________________________________________________________________________________________________


_________________________________________________________________
Layer (type)                 Output Shape              Param #   
=================================================================
model_1 (Model)              (None, 75, 100)           637500    
_________________________________________________________________
lstm_1 (LSTM)                (None, 75, 100)           80400     
_________________________________________________________________
global_max_pooling1d_1 (Glob (None, 100)               0         
_________________________________________________________________
dense_1 (Dense)              (None, 2)                 202       
=================================================================
Total params: 718,102.0
Trainable params: 718,102.0
Non-trainable params: 0.0
_________________________________________________________________
_________________________________________________________________
Layer (type)                 Output Shape              Param #   
=================================================================
model_1 (Model)              (None, 75, 100)           637500    
_________________________________________________________________
lstm_1 (LSTM)                (None, 75, 100)           80400     
_________________________________________________________________
global_max_pooling1d_1 (Glob (None, 100)               0         
_________________________________________________________________
dense_1 (Dense)              (None, 2)                 202       
=================================================================
Total params: 718,102.0
Trainable params: 718,102.0
Non-trainable params: 0.0
_________________________________________________________________

=================================================================
Total params: 718,102.0
Trainable params: 718,102.0
Non-trainable params: 0.0
_________________________________________________________________
_________________________________________________________________
Layer (type)                 Output Shape              Param #   
=================================================================
model_2 (Model)              (None, 75, 100)           637500    
_________________________________________________________________
lstm_2 (LSTM)                (None, 75, 100)           80400     
_________________________________________________________________
global_max_pooling1d_2 (Glob (None, 100)               0         
_________________________________________________________________
dense_2 (Dense)              (None, 2)                 202       
=================================================================
Total params: 718,102.0
Trainable params: 718,102.0
Non-trainable params: 0.0
_________________________________________________________________
submodel:
____________________________________________________________________________________________________
Layer (type)                     Output Shape          Param #     Connected to                     
====================================================================================================
embedding_1_input (InputLayer)   (None, 100)           0                                            
____________________________________________________________________________________________________
embedding_1 (Embedding)          (None, 100, 300)      277200                                       
____________________________________________________________________________________________________
dropout_1 (Dropout)              (None, 100, 300)      0                                            
____________________________________________________________________________________________________
dropout_2 (Dropout)              (None, 100, 300)      0                                            
____________________________________________________________________________________________________
dropout_3 (Dropout)              (None, 100, 300)      0                                            
____________________________________________________________________________________________________
skip_conv1d_1 (SkipConv1D)       (None, 100, 100)      120100                                       
____________________________________________________________________________________________________
skip_conv1d_2 (SkipConv1D)       (None, 100, 100)      120100                                       
____________________________________________________________________________________________________
skip_conv1d_3 (SkipConv1D)       (None, 100, 100)      120100                                       
____________________________________________________________________________________________________
max_pooling1d_1 (MaxPooling1D)   (None, 25, 100)       0                                            
____________________________________________________________________________________________________
max_pooling1d_2 (MaxPooling1D)   (None, 25, 100)       0                                            
____________________________________________________________________________________________________
max_pooling1d_3 (MaxPooling1D)   (None, 25, 100)       0                                            
____________________________________________________________________________________________________
concatenate_1 (Concatenate)      (None, 75, 100)       0                                            
====================================================================================================
Total params: 637,500.0
Trainable params: 637,500.0
Non-trainable params: 0.0
____________________________________________________________________________________________________


_________________________________________________________________
Layer (type)                 Output Shape              Param #   
=================================================================
model_1 (Model)              (None, 75, 100)           637500    
_________________________________________________________________
lstm_1 (LSTM)                (None, 75, 100)           80400     
_________________________________________________________________
global_max_pooling1d_1 (Glob (None, 100)               0         
_________________________________________________________________
dense_1 (Dense)              (None, 2)                 202       
=================================================================
Total params: 718,102.0
Trainable params: 718,102.0
Non-trainable params: 0.0
_________________________________________________________________
_________________________________________________________________
Layer (type)                 Output Shape              Param #   
=================================================================
model_1 (Model)              (None, 75, 100)           637500    
_________________________________________________________________
lstm_1 (LSTM)                (None, 75, 100)           80400     
_________________________________________________________________
global_max_pooling1d_1 (Glob (None, 100)               0         
_________________________________________________________________
dense_1 (Dense)              (None, 2)                 202       
=================================================================
Total params: 718,102.0
Trainable params: 718,102.0
Non-trainable params: 0.0
_________________________________________________________________
submodel:
____________________________________________________________________________________________________
Layer (type)                     Output Shape          Param #     Connected to                     
====================================================================================================
embedding_2_input (InputLayer)   (None, 100)           0                                            
____________________________________________________________________________________________________
embedding_2 (Embedding)          (None, 100, 300)      277200                                       
____________________________________________________________________________________________________
dropout_4 (Dropout)              (None, 100, 300)      0                                            
____________________________________________________________________________________________________
dropout_5 (Dropout)              (None, 100, 300)      0                                            
____________________________________________________________________________________________________
dropout_6 (Dropout)              (None, 100, 300)      0                                            
____________________________________________________________________________________________________
skip_conv1d_4 (SkipConv1D)       (None, 100, 100)      120100                                       
____________________________________________________________________________________________________
skip_conv1d_5 (SkipConv1D)       (None, 100, 100)      120100                                       
____________________________________________________________________________________________________
skip_conv1d_6 (SkipConv1D)       (None, 100, 100)      120100                                       
____________________________________________________________________________________________________
max_pooling1d_4 (MaxPooling1D)   (None, 25, 100)       0                                            
____________________________________________________________________________________________________
max_pooling1d_5 (MaxPooling1D)   (None, 25, 100)       0                                            
____________________________________________________________________________________________________
max_pooling1d_6 (MaxPooling1D)   (None, 25, 100)       0                                            
____________________________________________________________________________________________________
concatenate_2 (Concatenate)      (None, 75, 100)       0                                            
====================================================================================================
Total params: 637,500.0
Trainable params: 637,500.0
Non-trainable params: 0.0
____________________________________________________________________________________________________


_________________________________________________________________
Layer (type)                 Output Shape              Param #   
=================================================================
model_2 (Model)              (None, 75, 100)           637500    
_________________________________________________________________
lstm_2 (LSTM)                (None, 75, 100)           80400     
_________________________________________________________________
global_max_pooling1d_2 (Glob (None, 100)               0         
_________________________________________________________________
dense_2 (Dense)              (None, 2)                 202       
=================================================================
Total params: 718,102.0
Trainable params: 718,102.0
Non-trainable params: 0.0
_________________________________________________________________
_________________________________________________________________
Layer (type)                 Output Shape              Param #   
=================================================================
model_2 (Model)              (None, 75, 100)           637500    
_________________________________________________________________
lstm_2 (LSTM)                (None, 75, 100)           80400     
_________________________________________________________________
global_max_pooling1d_2 (Glob (None, 100)               0         
_________________________________________________________________
dense_2 (Dense)              (None, 2)                 202       
=================================================================
Total params: 718,102.0
Trainable params: 718,102.0
Non-trainable params: 0.0
_________________________________________________________________
submodel:
____________________________________________________________________________________________________
Layer (type)                     Output Shape          Param #     Connected to                     
====================================================================================================
embedding_3_input (InputLayer)   (None, 100)           0                                            
____________________________________________________________________________________________________
embedding_3 (Embedding)          (None, 100, 300)      277200                                       
____________________________________________________________________________________________________
dropout_7 (Dropout)              (None, 100, 300)      0                                            
____________________________________________________________________________________________________
dropout_8 (Dropout)              (None, 100, 300)      0                                            
____________________________________________________________________________________________________
dropout_9 (Dropout)              (None, 100, 300)      0                                            
____________________________________________________________________________________________________
skip_conv1d_7 (SkipConv1D)       (None, 100, 100)      120100                                       
____________________________________________________________________________________________________
skip_conv1d_8 (SkipConv1D)       (None, 100, 100)      120100                                       
____________________________________________________________________________________________________
skip_conv1d_9 (SkipConv1D)       (None, 100, 100)      120100                                       
____________________________________________________________________________________________________
max_pooling1d_7 (MaxPooling1D)   (None, 25, 100)       0                                            
____________________________________________________________________________________________________
max_pooling1d_8 (MaxPooling1D)   (None, 25, 100)       0                                            
____________________________________________________________________________________________________
max_pooling1d_9 (MaxPooling1D)   (None, 25, 100)       0                                            
____________________________________________________________________________________________________
concatenate_3 (Concatenate)      (None, 75, 100)       0                                            
====================================================================================================
Total params: 637,500.0
Trainable params: 637,500.0
Non-trainable params: 0.0
____________________________________________________________________________________________________


_________________________________________________________________
Layer (type)                 Output Shape              Param #   
=================================================================
model_3 (Model)              (None, 75, 100)           637500    
_________________________________________________________________
lstm_3 (LSTM)                (None, 75, 100)           80400     
_________________________________________________________________
global_max_pooling1d_3 (Glob (None, 100)               0         
_________________________________________________________________
dense_3 (Dense)              (None, 2)                 202       
=================================================================
Total params: 718,102.0
Trainable params: 718,102.0
Non-trainable params: 0.0
_________________________________________________________________
_________________________________________________________________
Layer (type)                 Output Shape              Param #   
=================================================================
model_3 (Model)              (None, 75, 100)           637500    
_________________________________________________________________
lstm_3 (LSTM)                (None, 75, 100)           80400     
_________________________________________________________________
global_max_pooling1d_3 (Glob (None, 100)               0         
_________________________________________________________________
dense_3 (Dense)              (None, 2)                 202       
=================================================================
Total params: 718,102.0
Trainable params: 718,102.0
Non-trainable params: 0.0
_________________________________________________________________
submodel:
____________________________________________________________________________________________________
Layer (type)                     Output Shape          Param #     Connected to                     
====================================================================================================
embedding_4_input (InputLayer)   (None, 100)           0                                            
____________________________________________________________________________________________________
embedding_4 (Embedding)          (None, 100, 300)      277200                                       
____________________________________________________________________________________________________
dropout_10 (Dropout)             (None, 100, 300)      0                                            
____________________________________________________________________________________________________
dropout_11 (Dropout)             (None, 100, 300)      0                                            
____________________________________________________________________________________________________
dropout_12 (Dropout)             (None, 100, 300)      0                                            
____________________________________________________________________________________________________
skip_conv1d_10 (SkipConv1D)      (None, 100, 100)      120100                                       
____________________________________________________________________________________________________
skip_conv1d_11 (SkipConv1D)      (None, 100, 100)      120100                                       
____________________________________________________________________________________________________
skip_conv1d_12 (SkipConv1D)      (None, 100, 100)      120100                                       
____________________________________________________________________________________________________
max_pooling1d_10 (MaxPooling1D)  (None, 25, 100)       0                                            
____________________________________________________________________________________________________
max_pooling1d_11 (MaxPooling1D)  (None, 25, 100)       0                                            
____________________________________________________________________________________________________
max_pooling1d_12 (MaxPooling1D)  (None, 25, 100)       0                                            
____________________________________________________________________________________________________
concatenate_4 (Concatenate)      (None, 75, 100)       0                                            
====================================================================================================
Total params: 637,500.0
Trainable params: 637,500.0
Non-trainable params: 0.0
____________________________________________________________________________________________________


_________________________________________________________________
Layer (type)                 Output Shape              Param #   
=================================================================
model_4 (Model)              (None, 75, 100)           637500    
_________________________________________________________________
lstm_4 (LSTM)                (None, 75, 100)           80400     
_________________________________________________________________
global_max_pooling1d_4 (Glob (None, 100)               0         
_________________________________________________________________
dense_4 (Dense)              (None, 2)                 202       
=================================================================
Total params: 718,102.0
Trainable params: 718,102.0
Non-trainable params: 0.0
_________________________________________________________________
_________________________________________________________________
Layer (type)                 Output Shape              Param #   
=================================================================
model_4 (Model)              (None, 75, 100)           637500    
_________________________________________________________________
lstm_4 (LSTM)                (None, 75, 100)           80400     
_________________________________________________________________
global_max_pooling1d_4 (Glob (None, 100)               0         
_________________________________________________________________
dense_4 (Dense)              (None, 2)                 202       
=================================================================
Total params: 718,102.0
Trainable params: 718,102.0
Non-trainable params: 0.0
_________________________________________________________________
submodel:
____________________________________________________________________________________________________
Layer (type)                     Output Shape          Param #     Connected to                     
====================================================================================================
embedding_5_input (InputLayer)   (None, 100)           0                                            
____________________________________________________________________________________________________
embedding_5 (Embedding)          (None, 100, 300)      277200                                       
____________________________________________________________________________________________________
dropout_13 (Dropout)             (None, 100, 300)      0                                            
____________________________________________________________________________________________________
dropout_14 (Dropout)             (None, 100, 300)      0                                            
____________________________________________________________________________________________________
dropout_15 (Dropout)             (None, 100, 300)      0                                            
____________________________________________________________________________________________________
skip_conv1d_13 (SkipConv1D)      (None, 100, 100)      120100                                       
____________________________________________________________________________________________________
skip_conv1d_14 (SkipConv1D)      (None, 100, 100)      120100                                       
____________________________________________________________________________________________________
skip_conv1d_15 (SkipConv1D)      (None, 100, 100)      120100                                       
____________________________________________________________________________________________________
max_pooling1d_13 (MaxPooling1D)  (None, 25, 100)       0                                            
____________________________________________________________________________________________________
max_pooling1d_14 (MaxPooling1D)  (None, 25, 100)       0                                            
____________________________________________________________________________________________________
max_pooling1d_15 (MaxPooling1D)  (None, 25, 100)       0                                            
____________________________________________________________________________________________________
concatenate_5 (Concatenate)      (None, 75, 100)       0                                            
====================================================================================================
Total params: 637,500.0
Trainable params: 637,500.0
Non-trainable params: 0.0
____________________________________________________________________________________________________


_________________________________________________________________
Layer (type)                 Output Shape              Param #   
=================================================================
model_5 (Model)              (None, 75, 100)           637500    
_________________________________________________________________
lstm_5 (LSTM)                (None, 75, 100)           80400     
_________________________________________________________________
global_max_pooling1d_5 (Glob (None, 100)               0         
_________________________________________________________________
dense_5 (Dense)              (None, 2)                 202       
=================================================================
Total params: 718,102.0
Trainable params: 718,102.0
Non-trainable params: 0.0
_________________________________________________________________
_________________________________________________________________
Layer (type)                 Output Shape              Param #   
=================================================================
model_5 (Model)              (None, 75, 100)           637500    
_________________________________________________________________
lstm_5 (LSTM)                (None, 75, 100)           80400     
_________________________________________________________________
global_max_pooling1d_5 (Glob (None, 100)               0         
_________________________________________________________________
dense_5 (Dense)              (None, 2)                 202       
=================================================================
Total params: 718,102.0
Trainable params: 718,102.0
Non-trainable params: 0.0
_________________________________________________________________
submodel:
____________________________________________________________________________________________________
Layer (type)                     Output Shape          Param #     Connected to                     
====================================================================================================
embedding_6_input (InputLayer)   (None, 100)           0                                            
____________________________________________________________________________________________________
embedding_6 (Embedding)          (None, 100, 300)      277200                                       
____________________________________________________________________________________________________
dropout_16 (Dropout)             (None, 100, 300)      0                                            
____________________________________________________________________________________________________
dropout_17 (Dropout)             (None, 100, 300)      0                                            
____________________________________________________________________________________________________
dropout_18 (Dropout)             (None, 100, 300)      0                                            
____________________________________________________________________________________________________
skip_conv1d_16 (SkipConv1D)      (None, 100, 100)      120100                                       
____________________________________________________________________________________________________
skip_conv1d_17 (SkipConv1D)      (None, 100, 100)      120100                                       
____________________________________________________________________________________________________
skip_conv1d_18 (SkipConv1D)      (None, 100, 100)      120100                                       
____________________________________________________________________________________________________
max_pooling1d_16 (MaxPooling1D)  (None, 25, 100)       0                                            
____________________________________________________________________________________________________
max_pooling1d_17 (MaxPooling1D)  (None, 25, 100)       0                                            
____________________________________________________________________________________________________
max_pooling1d_18 (MaxPooling1D)  (None, 25, 100)       0                                            
____________________________________________________________________________________________________
concatenate_6 (Concatenate)      (None, 75, 100)       0                                            
====================================================================================================
Total params: 637,500.0
Trainable params: 637,500.0
Non-trainable params: 0.0
____________________________________________________________________________________________________


_________________________________________________________________
Layer (type)                 Output Shape              Param #   
=================================================================
model_6 (Model)              (None, 75, 100)           637500    
_________________________________________________________________
lstm_6 (LSTM)                (None, 75, 100)           80400     
_________________________________________________________________
global_max_pooling1d_6 (Glob (None, 100)               0         
_________________________________________________________________
dense_6 (Dense)              (None, 2)                 202       
=================================================================
Total params: 718,102.0
Trainable params: 718,102.0
Non-trainable params: 0.0
_________________________________________________________________
_________________________________________________________________
Layer (type)                 Output Shape              Param #   
=================================================================
model_6 (Model)              (None, 75, 100)           637500    
_________________________________________________________________
lstm_6 (LSTM)                (None, 75, 100)           80400     
_________________________________________________________________
global_max_pooling1d_6 (Glob (None, 100)               0         
_________________________________________________________________
dense_6 (Dense)              (None, 2)                 202       
=================================================================
Total params: 718,102.0
Trainable params: 718,102.0
Non-trainable params: 0.0
_________________________________________________________________
complete 2017-11-24 20:01:33.324412
<<< completed at Fri 24 Nov 20:01:34 GMT 2017: 

>>> Start the following setting at Fri 24 Nov 20:01:34 GMT 2017: 
	input=/home/zqz/Work/chase/data/ml/ml/rm/labeled_data_all.csv output=/home/zqz/Work/chase/output dataset=rm model_desc=f_(conv1d=100-[5],so),lstm=100-True,gmaxpooling1d,dense=2-softmax
== Perform ANN ...
fitting model...
submodel:
____________________________________________________________________________________________________
Layer (type)                     Output Shape          Param #     Connected to                     
====================================================================================================
embedding_1_input (InputLayer)   (None, 100)           0                                            
____________________________________________________________________________________________________
embedding_1 (Embedding)          (None, 100, 300)      277200                                       
____________________________________________________________________________________________________
dropout_1 (Dropout)              (None, 100, 300)      0                                            
____________________________________________________________________________________________________
dropout_2 (Dropout)              (None, 100, 300)      0                                            
____________________________________________________________________________________________________
dropout_3 (Dropout)              (None, 100, 300)      0                                            
____________________________________________________________________________________________________
dropout_4 (Dropout)              (None, 100, 300)      0                                            
____________________________________________________________________________________________________
dropout_5 (Dropout)              (None, 100, 300)      0                                            
____________________________________________________________________________________________________
dropout_6 (Dropout)              (None, 100, 300)      0                                            
____________________________________________________________________________________________________
dropout_7 (Dropout)              (None, 100, 300)      0                                            
____________________________________________________________________________________________________
skip_conv1d_1 (SkipConv1D)       (None, 100, 100)      150100                                       
____________________________________________________________________________________________________
skip_conv1d_2 (SkipConv1D)       (None, 100, 100)      150100                                       
____________________________________________________________________________________________________
skip_conv1d_3 (SkipConv1D)       (None, 100, 100)      150100                                       
____________________________________________________________________________________________________
skip_conv1d_4 (SkipConv1D)       (None, 100, 100)      150100                                       
____________________________________________________________________________________________________
skip_conv1d_5 (SkipConv1D)       (None, 100, 100)      150100                                       
____________________________________________________________________________________________________
skip_conv1d_6 (SkipConv1D)       (None, 100, 100)      150100                                       
____________________________________________________________________________________________________
conv1d_1 (Conv1D)                (None, 100, 100)      90100                                        
____________________________________________________________________________________________________
max_pooling1d_1 (MaxPooling1D)   (None, 25, 100)       0                                            
____________________________________________________________________________________________________
max_pooling1d_2 (MaxPooling1D)   (None, 25, 100)       0                                            
____________________________________________________________________________________________________
max_pooling1d_3 (MaxPooling1D)   (None, 25, 100)       0                                            
____________________________________________________________________________________________________
max_pooling1d_4 (MaxPooling1D)   (None, 25, 100)       0                                            
____________________________________________________________________________________________________
max_pooling1d_5 (MaxPooling1D)   (None, 25, 100)       0                                            
____________________________________________________________________________________________________
max_pooling1d_6 (MaxPooling1D)   (None, 25, 100)       0                                            
____________________________________________________________________________________________________
max_pooling1d_7 (MaxPooling1D)   (None, 25, 100)       0                                            
____________________________________________________________________________________________________
concatenate_1 (Concatenate)      (None, 175, 100)      0                                            
====================================================================================================
Total params: 1,267,900.0
Trainable params: 1,267,900.0
Non-trainable params: 0.0
____________________________________________________________________________________________________


_________________________________________________________________
Layer (type)                 Output Shape              Param #   
=================================================================
model_1 (Model)              (None, 175, 100)          1267900   
_________________________________________________________________
lstm_1 (LSTM)                (None, 175, 100)          80400     
_________________________________________________________________
global_max_pooling1d_1 (Glob (None, 100)               0         
_________________________________________________________________
dense_1 (Dense)              (None, 2)                 202       
=================================================================
Total params: 1,348,502.0
Trainable params: 1,348,502.0
Non-trainable params: 0.0
_________________________________________________________________
_________________________________________________________________
Layer (type)                 Output Shape              Param #   
=================================================================
model_1 (Model)              (None, 175, 100)          1267900   
_________________________________________________________________
lstm_1 (LSTM)                (None, 175, 100)          80400     
_________________________________________________________________
global_max_pooling1d_1 (Glob (None, 100)               0         
_________________________________________________________________
dense_1 (Dense)              (None, 2)                 202       
=================================================================
Total params: 1,348,502.0
Trainable params: 1,348,502.0
Non-trainable params: 0.0
_________________________________________________________________
submodel:
____________________________________________________________________________________________________
Layer (type)                     Output Shape          Param #     Connected to                     
====================================================================================================
embedding_2_input (InputLayer)   (None, 100)           0                                            
____________________________________________________________________________________________________
embedding_2 (Embedding)          (None, 100, 300)      277200                                       
____________________________________________________________________________________________________
dropout_8 (Dropout)              (None, 100, 300)      0                                            
____________________________________________________________________________________________________
dropout_9 (Dropout)              (None, 100, 300)      0                                            
____________________________________________________________________________________________________submodel:
____________________________________________________________________________________________________
Layer (type)                     Output Shape          Param #     Connected to                     
====================================================================================================
embedding_1_input (InputLayer)   (None, 100)           0                                            
____________________________________________________________________________________________________
embedding_1 (Embedding)          (None, 100, 300)      277200                                       
____________________________________________________________________________________________________
dropout_1 (Dropout)              (None, 100, 300)      0                                            
____________________________________________________________________________________________________
dropout_2 (Dropout)              (None, 100, 300)      0                                            
____________________________________________________________________________________________________
dropout_3 (Dropout)              (None, 100, 300)      0                                            
____________________________________________________________________________________________________
dropout_4 (Dropout)              (None, 100, 300)      0                                            
____________________________________________________________________________________________________
dropout_5 (Dropout)              (None, 100, 300)      0                                            
____________________________________________________________________________________________________
dropout_6 (Dropout)              (None, 100, 300)      0                                            
____________________________________________________________________________________________________
dropout_7 (Dropout)              (None, 100, 300)      0                                            
____________________________________________________________________________________________________
skip_conv1d_1 (SkipConv1D)       (None, 100, 100)      150100                                       
____________________________________________________________________________________________________
skip_conv1d_2 (SkipConv1D)       (None, 100, 100)      150100                                       
____________________________________________________________________________________________________
skip_conv1d_3 (SkipConv1D)       (None, 100, 100)      150100                                       
____________________________________________________________________________________________________
skip_conv1d_4 (SkipConv1D)       (None, 100, 100)      150100                                       
____________________________________________________________________________________________________
skip_conv1d_5 (SkipConv1D)       (None, 100, 100)      150100                                       
____________________________________________________________________________________________________
skip_conv1d_6 (SkipConv1D)       (None, 100, 100)      150100                                       
____________________________________________________________________________________________________
conv1d_1 (Conv1D)                (None, 100, 100)      90100                                        
____________________________________________________________________________________________________
max_pooling1d_1 (MaxPooling1D)   (None, 25, 100)       0                                            
____________________________________________________________________________________________________
max_pooling1d_2 (MaxPooling1D)   (None, 25, 100)       0                                            
____________________________________________________________________________________________________
max_pooling1d_3 (MaxPooling1D)   (None, 25, 100)       0                                            
____________________________________________________________________________________________________
max_pooling1d_4 (MaxPooling1D)   (None, 25, 100)       0                                            
____________________________________________________________________________________________________
max_pooling1d_5 (MaxPooling1D)   (None, 25, 100)       0                                            
____________________________________________________________________________________________________
max_pooling1d_6 (MaxPooling1D)   (None, 25, 100)       0                                            
____________________________________________________________________________________________________
max_pooling1d_7 (MaxPooling1D)   (None, 25, 100)       0                                            
____________________________________________________________________________________________________
concatenate_1 (Concatenate)      (None, 175, 100)      0                                            
====================================================================================================
Total params: 1,267,900.0
Trainable params: 1,267,900.0
Non-trainable params: 0.0
____________________________________________________________________________________________________


_________________________________________________________________
Layer (type)                 Output Shape              Param #   
=================================================================
model_1 (Model)              (None, 175, 100)          1267900   
_________________________________________________________________
lstm_1 (LSTM)                (None, 175, 100)          80400     
_________________________________________________________________
global_max_pooling1d_1 (Glob (None, 100)               0         
_________________________________________________________________
dense_1 (Dense)              (None, 2)                 202       
=================================================================
Total params: 1,348,502.0
Trainable params: 1,348,502.0
Non-trainable params: 0.0
_________________________________________________________________
_________________________________________________________________
Layer (type)                 Output Shape              Param #   
=================================================================
model_1 (Model)              (None, 175, 100)          1267900   
_________________________________________________________________
lstm_1 (LSTM)                (None, 175, 100)          80400     
_________________________________________________________________
global_max_pooling1d_1 (Glob (None, 100)               0         
_________________________________________________________________
dense_1 (Dense)              (None, 2)                 202       
=================================================================
Total params: 1,348,502.0
Trainable params: 1,348,502.0
Non-trainable params: 0.0
_________________________________________________________________

dropout_10 (Dropout)             (None, 100, 300)      0                                            
____________________________________________________________________________________________________
dropout_11 (Dropout)             (None, 100, 300)      0                                            
____________________________________________________________________________________________________
dropout_12 (Dropout)             (None, 100, 300)      0                                            
____________________________________________________________________________________________________
dropout_13 (Dropout)             (None, 100, 300)      0                                            
____________________________________________________________________________________________________
dropout_14 (Dropout)             (None, 100, 300)      0                                            
____________________________________________________________________________________________________
skip_conv1d_7 (SkipConv1D)       (None, 100, 100)      150100                                       
____________________________________________________________________________________________________
skip_conv1d_8 (SkipConv1D)       (None, 100, 100)      150100                                       
____________________________________________________________________________________________________
skip_conv1d_9 (SkipConv1D)       (None, 100, 100)      150100                                       
____________________________________________________________________________________________________
skip_conv1d_10 (SkipConv1D)      (None, 100, 100)      150100                                       
____________________________________________________________________________________________________
skip_conv1d_11 (SkipConv1D)      (None, 100, 100)      150100                                       
____________________________________________________________________________________________________
skip_conv1d_12 (SkipConv1D)      (None, 100, 100)      150100                                       
____________________________________________________________________________________________________
conv1d_2 (Conv1D)                (None, 100, 100)      90100                                        
____________________________________________________________________________________________________
max_pooling1d_8 (MaxPooling1D)   (None, 25, 100)       0                                            
____________________________________________________________________________________________________
max_pooling1d_9 (MaxPooling1D)   (None, 25, 100)       0                                            
____________________________________________________________________________________________________
max_pooling1d_10 (MaxPooling1D)  (None, 25, 100)       0                                            
____________________________________________________________________________________________________
max_pooling1d_11 (MaxPooling1D)  (None, 25, 100)       0                                            
____________________________________________________________________________________________________
max_pooling1d_12 (MaxPooling1D)  (None, 25, 100)       0                                            
____________________________________________________________________________________________________
max_pooling1d_13 (MaxPooling1D)  (None, 25, 100)       0                                            
____________________________________________________________________________________________________
max_pooling1d_14 (MaxPooling1D)  (None, 25, 100)       0                                            
____________________________________________________________________________________________________
concatenate_2 (Concatenate)      (None, 175, 100)      0                                            
====================================================================================================
Total params: 1,267,900.0
Trainable params: 1,267,900.0
Non-trainable params: 0.0
____________________________________________________________________________________________________


_________________________________________________________________
Layer (type)                 Output Shape              Param #   
=================================================================
model_2 (Model)              (None, 175, 100)          1267900   
_________________________________________________________________
lstm_2 (LSTM)                (None, 175, 100)          80400     
_________________________________________________________________
global_max_pooling1d_2 (Glob (None, 100)               0         
_________________________________________________________________
dense_2 (Dense)              (None, 2)                 202       
=================================================================
Total params: 1,348,502.0
Trainable params: 1,348,502.0
Non-trainable params: 0.0
_________________________________________________________________
_________________________________________________________________
Layer (type)                 Output Shape              Param #   
=================================================================
model_2 (Model)              (None, 175, 100)          1267900   
_________________________________________________________________
lstm_2 (LSTM)                (None, 175, 100)          80400     
_________________________________________________________________
global_max_pooling1d_2 (Glob (None, 100)               0         
_________________________________________________________________
dense_2 (Dense)              (None, 2)                 202       
=================================================================
Total params: 1,348,502.0
Trainable params: 1,348,502.0
Non-trainable params: 0.0
_________________________________________________________________
submodel:
____________________________________________________________________________________________________
Layer (type)                     Output Shape          Param #     Connected to                     
====================================================================================================
embedding_1_input (InputLayer)   (None, 100)           0                                            
____________________________________________________________________________________________________
embedding_1 (Embedding)          (None, 100, 300)      277200                                       
____________________________________________________________________________________________________
dropout_1 (Dropout)              (None, 100, 300)      0                                            
____________________________________________________________________________________________________
dropout_2 (Dropout)              (None, 100, 300)      0                                            
____________________________________________________________________________________________________
dropout_3 (Dropout)              (None, 100, 300)      0                                            
____________________________________________________________________________________________________
dropout_4 (Dropout)              (None, 100, 300)      0                                            
____________________________________________________________________________________________________
dropout_5 (Dropout)              (None, 100, 300)      0                                            
____________________________________________________________________________________________________
dropout_6 (Dropout)              (None, 100, 300)      0                                            
____________________________________________________________________________________________________
dropout_7 (Dropout)              (None, 100, 300)      0                                            
____________________________________________________________________________________________________
skip_conv1d_1 (SkipConv1D)       (None, 100, 100)      150100                                       
____________________________________________________________________________________________________
skip_conv1d_2 (SkipConv1D)       (None, 100, 100)      150100                                       
____________________________________________________________________________________________________
skip_conv1d_3 (SkipConv1D)       (None, 100, 100)      150100                                       
____________________________________________________________________________________________________
skip_conv1d_4 (SkipConv1D)       (None, 100, 100)      150100                                       
____________________________________________________________________________________________________
skip_conv1d_5 (SkipConv1D)       (None, 100, 100)      150100                                       
____________________________________________________________________________________________________
skip_conv1d_6 (SkipConv1D)       (None, 100, 100)      150100                                       
____________________________________________________________________________________________________
conv1d_1 (Conv1D)                (None, 100, 100)      90100                                        
____________________________________________________________________________________________________
max_pooling1d_1 (MaxPooling1D)   (None, 25, 100)       0                                            
____________________________________________________________________________________________________
max_pooling1d_2 (MaxPooling1D)   (None, 25, 100)       0                                            
____________________________________________________________________________________________________
max_pooling1d_3 (MaxPooling1D)   (None, 25, 100)       0                                            
____________________________________________________________________________________________________
max_pooling1d_4 (MaxPooling1D)   (None, 25, 100)       0                                            
____________________________________________________________________________________________________
max_pooling1d_5 (MaxPooling1D)   (None, 25, 100)       0                                            
____________________________________________________________________________________________________
max_pooling1d_6 (MaxPooling1D)   (None, 25, 100)       0                                            
____________________________________________________________________________________________________
max_pooling1d_7 (MaxPooling1D)   (None, 25, 100)       0                                            
____________________________________________________________________________________________________
concatenate_1 (Concatenate)      (None, 175, 100)      0                                            
====================================================================================================
Total params: 1,267,900.0
Trainable params: 1,267,900.0
Non-trainable params: 0.0
____________________________________________________________________________________________________


_________________________________________________________________
Layer (type)                 Output Shape              Param #   
=================================================================
model_1 (Model)              (None, 175, 100)          1267900   
_________________________________________________________________
lstm_1 (LSTM)                (None, 175, 100)          80400     
_________________________________________________________________
global_max_pooling1d_1 (Glob (None, 100)               0         
_________________________________________________________________
dense_1 (Dense)              (None, 2)                 202       
=================================================================
Total params: 1,348,502.0
Trainable params: 1,348,502.0
Non-trainable params: 0.0
_________________________________________________________________
_________________________________________________________________
Layer (type)                 Output Shape              Param #   
=================================================================
model_1 (Model)              (None, 175, 100)          1267900   
_________________________________________________________________
lstm_1 (LSTM)                (None, 175, 100)          80400     
_________________________________________________________________
global_max_pooling1d_1 (Glob (None, 100)               0         
_________________________________________________________________
dense_1 (Dense)              (None, 2)                 202       
=================================================================
Total params: 1,348,502.0
Trainable params: 1,348,502.0
Non-trainable params: 0.0
_________________________________________________________________
submodel:
____________________________________________________________________________________________________
Layer (type)                     Output Shape          Param #     Connected to                     
====================================================================================================
embedding_1_input (InputLayer)   (None, 100)           0                                            
____________________________________________________________________________________________________
embedding_1 (Embedding)          (None, 100, 300)      277200                                       
____________________________________________________________________________________________________
dropout_1 (Dropout)              (None, 100, 300)      0                                            
____________________________________________________________________________________________________
dropout_2 (Dropout)              (None, 100, 300)      0                                            
____________________________________________________________________________________________________
dropout_3 (Dropout)              (None, 100, 300)      0                                            
____________________________________________________________________________________________________
dropout_4 (Dropout)              (None, 100, 300)      0                                            
____________________________________________________________________________________________________
dropout_5 (Dropout)              (None, 100, 300)      0                                            
____________________________________________________________________________________________________
dropout_6 (Dropout)              (None, 100, 300)      0                                            
____________________________________________________________________________________________________
dropout_7 (Dropout)              (None, 100, 300)      0                                            
____________________________________________________________________________________________________
skip_conv1d_1 (SkipConv1D)       (None, 100, 100)      150100                                       
____________________________________________________________________________________________________
skip_conv1d_2 (SkipConv1D)       (None, 100, 100)      150100                                       
____________________________________________________________________________________________________
skip_conv1d_3 (SkipConv1D)       (None, 100, 100)      150100                                       
____________________________________________________________________________________________________
skip_conv1d_4 (SkipConv1D)       (None, 100, 100)      150100                                       
____________________________________________________________________________________________________
skip_conv1d_5 (SkipConv1D)       (None, 100, 100)      150100                                       
____________________________________________________________________________________________________
skip_conv1d_6 (SkipConv1D)       (None, 100, 100)      150100                                       
____________________________________________________________________________________________________
conv1d_1 (Conv1D)                (None, 100, 100)      90100                                        
____________________________________________________________________________________________________
max_pooling1d_1 (MaxPooling1D)   (None, 25, 100)       0                                            
____________________________________________________________________________________________________
max_pooling1d_2 (MaxPooling1D)   (None, 25, 100)       0                                            
____________________________________________________________________________________________________
max_pooling1d_3 (MaxPooling1D)   (None, 25, 100)       0                                            
____________________________________________________________________________________________________
max_pooling1d_4 (MaxPooling1D)   (None, 25, 100)       0                                            
____________________________________________________________________________________________________
max_pooling1d_5 (MaxPooling1D)   (None, 25, 100)       0                                            
____________________________________________________________________________________________________
max_pooling1d_6 (MaxPooling1D)   (None, 25, 100)       0                                            
____________________________________________________________________________________________________
max_pooling1d_7 (MaxPooling1D)   (None, 25, 100)       0                                            
____________________________________________________________________________________________________
concatenate_1 (Concatenate)      (None, 175, 100)      0                                            
====================================================================================================
Total params: 1,267,900.0
Trainable params: 1,267,900.0
Non-trainable params: 0.0
____________________________________________________________________________________________________


_________________________________________________________________
Layer (type)                 Output Shape              Param #   
=================================================================
model_1 (Model)              (None, 175, 100)          1267900   
_________________________________________________________________
lstm_1 (LSTM)                (None, 175, 100)          80400     
_________________________________________________________________
global_max_pooling1d_1 (Glob (None, 100)               0         
_________________________________________________________________
dense_1 (Dense)              (None, 2)                 202       
=================================================================
Total params: 1,348,502.0
Trainable params: 1,348,502.0
Non-trainable params: 0.0
_________________________________________________________________
_________________________________________________________________
Layer (type)                 Output Shape              Param #   
=================================================================
model_1 (Model)              (None, 175, 100)          1267900   
_________________________________________________________________
lstm_1 (LSTM)                (None, 175, 100)          80400     
_________________________________________________________________
global_max_pooling1d_1 (Glob (None, 100)               0         
_________________________________________________________________
dense_1 (Dense)              (None, 2)                 202       
=================================================================
Total params: 1,348,502.0
Trainable params: 1,348,502.0
Non-trainable params: 0.0
_________________________________________________________________
submodel:
____________________________________________________________________________________________________
Layer (type)                     Output Shape          Param #     Connected to                     
====================================================================================================
embedding_1_input (InputLayer)   (None, 100)           0                                            
____________________________________________________________________________________________________
embedding_1 (Embedding)          (None, 100, 300)      277200                                       
____________________________________________________________________________________________________
dropout_1 (Dropout)              (None, 100, 300)      0                                            
____________________________________________________________________________________________________
dropout_2 (Dropout)              (None, 100, 300)      0                                            
____________________________________________________________________________________________________
dropout_3 (Dropout)              (None, 100, 300)      0                                            
____________________________________________________________________________________________________
dropout_4 (Dropout)              (None, 100, 300)      0                                            
____________________________________________________________________________________________________
dropout_5 (Dropout)              (None, 100, 300)      0                                            
____________________________________________________________________________________________________
dropout_6 (Dropout)              (None, 100, 300)      0                                            
____________________________________________________________________________________________________
dropout_7 (Dropout)              (None, 100, 300)      0                                            
____________________________________________________________________________________________________
skip_conv1d_1 (SkipConv1D)       (None, 100, 100)      150100                                       
____________________________________________________________________________________________________
skip_conv1d_2 (SkipConv1D)       (None, 100, 100)      150100                                       
____________________________________________________________________________________________________
skip_conv1d_3 (SkipConv1D)       (None, 100, 100)      150100                                       
____________________________________________________________________________________________________
skip_conv1d_4 (SkipConv1D)       (None, 100, 100)      150100                                       
____________________________________________________________________________________________________
skip_conv1d_5 (SkipConv1D)       (None, 100, 100)      150100                                       
____________________________________________________________________________________________________
skip_conv1d_6 (SkipConv1D)       (None, 100, 100)      150100                                       
____________________________________________________________________________________________________
conv1d_1 (Conv1D)                (None, 100, 100)      90100                                        
____________________________________________________________________________________________________
max_pooling1d_1 (MaxPooling1D)   (None, 25, 100)       0                                            
____________________________________________________________________________________________________
max_pooling1d_2 (MaxPooling1D)   (None, 25, 100)       0                                            
____________________________________________________________________________________________________
max_pooling1d_3 (MaxPooling1D)   (None, 25, 100)       0                                            
____________________________________________________________________________________________________
max_pooling1d_4 (MaxPooling1D)   (None, 25, 100)       0                                            
____________________________________________________________________________________________________
max_pooling1d_5 (MaxPooling1D)   (None, 25, 100)       0                                            
____________________________________________________________________________________________________
max_pooling1d_6 (MaxPooling1D)   (None, 25, 100)       0                                            
____________________________________________________________________________________________________
max_pooling1d_7 (MaxPooling1D)   (None, 25, 100)       0                                            
____________________________________________________________________________________________________
concatenate_1 (Concatenate)      (None, 175, 100)      0                                            
====================================================================================================
Total params: 1,267,900.0
Trainable params: 1,267,900.0
Non-trainable params: 0.0
____________________________________________________________________________________________________


_________________________________________________________________
Layer (type)                 Output Shape              Param #   
=================================================================
model_1 (Model)              (None, 175, 100)          1267900   
_________________________________________________________________
lstm_1 (LSTM)                (None, 175, 100)          80400     
_________________________________________________________________
global_max_pooling1d_1 (Glob (None, 100)               0         
_________________________________________________________________
dense_1 (Dense)              (None, 2)                 202       
=================================================================
Total params: 1,348,502.0
Trainable params: 1,348,502.0
Non-trainable params: 0.0
_________________________________________________________________
_________________________________________________________________
Layer (type)                 Output Shape              Param #   
=================================================================
model_1 (Model)              (None, 175, 100)          1267900   
_________________________________________________________________
lstm_1 (LSTM)                (None, 175, 100)          80400     
_________________________________________________________________
global_max_pooling1d_1 (Glob (None, 100)               0         
_________________________________________________________________
dense_1 (Dense)              (None, 2)                 202       
=================================================================
Total params: 1,348,502.0
Trainable params: 1,348,502.0
Non-trainable params: 0.0
_________________________________________________________________
submodel:
____________________________________________________________________________________________________
Layer (type)                     Output Shape          Param #     Connected to                     
====================================================================================================
embedding_2_input (InputLayer)   (None, 100)           0                                            
____________________________________________________________________________________________________
embedding_2 (Embedding)          (None, 100, 300)      277200                                       
____________________________________________________________________________________________________
dropout_8 (Dropout)              (None, 100, 300)      0                                            
____________________________________________________________________________________________________
dropout_9 (Dropout)              (None, 100, 300)      0                                            
____________________________________________________________________________________________________
dropout_10 (Dropout)             (None, 100, 300)      0                                            
____________________________________________________________________________________________________
dropout_11 (Dropout)             (None, 100, 300)      0                                            
____________________________________________________________________________________________________
dropout_12 (Dropout)             (None, 100, 300)      0                                            
____________________________________________________________________________________________________
dropout_13 (Dropout)             (None, 100, 300)      0                                            
____________________________________________________________________________________________________
dropout_14 (Dropout)             (None, 100, 300)      0                                            
____________________________________________________________________________________________________
skip_conv1d_7 (SkipConv1D)       (None, 100, 100)      150100                                       
____________________________________________________________________________________________________
skip_conv1d_8 (SkipConv1D)       (None, 100, 100)      150100                                       
____________________________________________________________________________________________________
skip_conv1d_9 (SkipConv1D)       (None, 100, 100)      150100                                       
____________________________________________________________________________________________________
skip_conv1d_10 (SkipConv1D)      (None, 100, 100)      150100                                       
____________________________________________________________________________________________________
skip_conv1d_11 (SkipConv1D)      (None, 100, 100)      150100                                       
____________________________________________________________________________________________________
skip_conv1d_12 (SkipConv1D)      (None, 100, 100)      150100                                       
____________________________________________________________________________________________________
conv1d_2 (Conv1D)                (None, 100, 100)      90100                                        
____________________________________________________________________________________________________
max_pooling1d_8 (MaxPooling1D)   (None, 25, 100)       0                                            
____________________________________________________________________________________________________
max_pooling1d_9 (MaxPooling1D)   (None, 25, 100)       0                                            
____________________________________________________________________________________________________
max_pooling1d_10 (MaxPooling1D)  (None, 25, 100)       0                                            
____________________________________________________________________________________________________
max_pooling1d_11 (MaxPooling1D)  (None, 25, 100)       0                                            
____________________________________________________________________________________________________
max_pooling1d_12 (MaxPooling1D)  (None, 25, 100)       0                                            
____________________________________________________________________________________________________
max_pooling1d_13 (MaxPooling1D)  (None, 25, 100)       0                                            
____________________________________________________________________________________________________
max_pooling1d_14 (MaxPooling1D)  (None, 25, 100)       0                                            
____________________________________________________________________________________________________
concatenate_2 (Concatenate)      (None, 175, 100)      0                                            
====================================================================================================
Total params: 1,267,900.0
Trainable params: 1,267,900.0
Non-trainable params: 0.0
____________________________________________________________________________________________________


_________________________________________________________________
Layer (type)                 Output Shape              Param #   
=================================================================
model_2 (Model)              (None, 175, 100)          1267900   
_________________________________________________________________
lstm_2 (LSTM)                (None, 175, 100)          80400     
_________________________________________________________________
global_max_pooling1d_2 (Glob (None, 100)               0         
_________________________________________________________________
dense_2 (Dense)              (None, 2)                 202       
=================================================================
Total params: 1,348,502.0
Trainable params: 1,348,502.0
Non-trainable params: 0.0
_________________________________________________________________
_________________________________________________________________
Layer (type)                 Output Shape              Param #   
=================================================================
model_2 (Model)              (None, 175, 100)          1267900   
_________________________________________________________________
lstm_2 (LSTM)                (None, 175, 100)          80400     
_________________________________________________________________
global_max_pooling1d_2 (Glob (None, 100)               0         
_________________________________________________________________
dense_2 (Dense)              (None, 2)                 202       
=================================================================
Total params: 1,348,502.0
Trainable params: 1,348,502.0
Non-trainable params: 0.0
_________________________________________________________________
submodel:
____________________________________________________________________________________________________
Layer (type)                     Output Shape          Param #     Connected to                     
====================================================================================================
embedding_3_input (InputLayer)   (None, 100)           0                                            
____________________________________________________________________________________________________
embedding_3 (Embedding)          (None, 100, 300)      277200                                       
____________________________________________________________________________________________________
dropout_15 (Dropout)             (None, 100, 300)      0                                            
____________________________________________________________________________________________________
dropout_16 (Dropout)             (None, 100, 300)      0                                            
____________________________________________________________________________________________________
dropout_17 (Dropout)             (None, 100, 300)      0                                            
____________________________________________________________________________________________________
dropout_18 (Dropout)             (None, 100, 300)      0                                            
____________________________________________________________________________________________________
dropout_19 (Dropout)             (None, 100, 300)      0                                            
____________________________________________________________________________________________________
dropout_20 (Dropout)             (None, 100, 300)      0                                            
____________________________________________________________________________________________________
dropout_21 (Dropout)             (None, 100, 300)      0                                            
____________________________________________________________________________________________________
skip_conv1d_13 (SkipConv1D)      (None, 100, 100)      150100                                       
____________________________________________________________________________________________________
skip_conv1d_14 (SkipConv1D)      (None, 100, 100)      150100                                       
____________________________________________________________________________________________________
skip_conv1d_15 (SkipConv1D)      (None, 100, 100)      150100                                       
____________________________________________________________________________________________________
skip_conv1d_16 (SkipConv1D)      (None, 100, 100)      150100                                       
____________________________________________________________________________________________________
skip_conv1d_17 (SkipConv1D)      (None, 100, 100)      150100                                       
____________________________________________________________________________________________________
skip_conv1d_18 (SkipConv1D)      (None, 100, 100)      150100                                       
____________________________________________________________________________________________________
conv1d_3 (Conv1D)                (None, 100, 100)      90100                                        
____________________________________________________________________________________________________
max_pooling1d_15 (MaxPooling1D)  (None, 25, 100)       0                                            
____________________________________________________________________________________________________
max_pooling1d_16 (MaxPooling1D)  (None, 25, 100)       0                                            
____________________________________________________________________________________________________
max_pooling1d_17 (MaxPooling1D)  (None, 25, 100)       0                                            
____________________________________________________________________________________________________
max_pooling1d_18 (MaxPooling1D)  (None, 25, 100)       0                                            
____________________________________________________________________________________________________
max_pooling1d_19 (MaxPooling1D)  (None, 25, 100)       0                                            
____________________________________________________________________________________________________
max_pooling1d_20 (MaxPooling1D)  (None, 25, 100)       0                                            
____________________________________________________________________________________________________
max_pooling1d_21 (MaxPooling1D)  (None, 25, 100)       0                                            
____________________________________________________________________________________________________
concatenate_3 (Concatenate)      (None, 175, 100)      0                                            
====================================================================================================
Total params: 1,267,900.0
Trainable params: 1,267,900.0
Non-trainable params: 0.0
____________________________________________________________________________________________________


_________________________________________________________________
Layer (type)                 Output Shape              Param #   
=================================================================
model_3 (Model)              (None, 175, 100)          1267900   
_________________________________________________________________
lstm_3 (LSTM)                (None, 175, 100)          80400     
_________________________________________________________________
global_max_pooling1d_3 (Glob (None, 100)               0         
_________________________________________________________________
dense_3 (Dense)              (None, 2)                 202       
=================================================================
Total params: 1,348,502.0
Trainable params: 1,348,502.0
Non-trainable params: 0.0
_________________________________________________________________
_________________________________________________________________
Layer (type)                 Output Shape              Param #   
=================================================================
model_3 (Model)              (None, 175, 100)          1267900   
_________________________________________________________________
lstm_3 (LSTM)                (None, 175, 100)          80400     
_________________________________________________________________
global_max_pooling1d_3 (Glob (None, 100)               0         
_________________________________________________________________
dense_3 (Dense)              (None, 2)                 202       
=================================================================
Total params: 1,348,502.0
Trainable params: 1,348,502.0
Non-trainable params: 0.0
_________________________________________________________________
submodel:
____________________________________________________________________________________________________
Layer (type)                     Output Shape          Param #     Connected to                     
====================================================================================================
embedding_4_input (InputLayer)   (None, 100)           0                                            
____________________________________________________________________________________________________
embedding_4 (Embedding)          (None, 100, 300)      277200                                       
____________________________________________________________________________________________________
dropout_22 (Dropout)             (None, 100, 300)      0                                            
____________________________________________________________________________________________________
dropout_23 (Dropout)             (None, 100, 300)      0                                            
____________________________________________________________________________________________________
dropout_24 (Dropout)             (None, 100, 300)      0                                            
____________________________________________________________________________________________________
dropout_25 (Dropout)             (None, 100, 300)      0                                            
____________________________________________________________________________________________________
dropout_26 (Dropout)             (None, 100, 300)      0                                            
____________________________________________________________________________________________________
dropout_27 (Dropout)             (None, 100, 300)      0                                            
____________________________________________________________________________________________________
dropout_28 (Dropout)             (None, 100, 300)      0                                            
____________________________________________________________________________________________________
skip_conv1d_19 (SkipConv1D)      (None, 100, 100)      150100                                       
____________________________________________________________________________________________________
skip_conv1d_20 (SkipConv1D)      (None, 100, 100)      150100                                       
____________________________________________________________________________________________________
skip_conv1d_21 (SkipConv1D)      (None, 100, 100)      150100                                       
____________________________________________________________________________________________________
skip_conv1d_22 (SkipConv1D)      (None, 100, 100)      150100                                       
____________________________________________________________________________________________________
skip_conv1d_23 (SkipConv1D)      (None, 100, 100)      150100                                       
____________________________________________________________________________________________________
skip_conv1d_24 (SkipConv1D)      (None, 100, 100)      150100                                       
____________________________________________________________________________________________________
conv1d_4 (Conv1D)                (None, 100, 100)      90100                                        
____________________________________________________________________________________________________
max_pooling1d_22 (MaxPooling1D)  (None, 25, 100)       0                                            
____________________________________________________________________________________________________
max_pooling1d_23 (MaxPooling1D)  (None, 25, 100)       0                                            
____________________________________________________________________________________________________
max_pooling1d_24 (MaxPooling1D)  (None, 25, 100)       0                                            
____________________________________________________________________________________________________
max_pooling1d_25 (MaxPooling1D)  (None, 25, 100)       0                                            
____________________________________________________________________________________________________
max_pooling1d_26 (MaxPooling1D)  (None, 25, 100)       0                                            
____________________________________________________________________________________________________
max_pooling1d_27 (MaxPooling1D)  (None, 25, 100)       0                                            
____________________________________________________________________________________________________
max_pooling1d_28 (MaxPooling1D)  (None, 25, 100)       0                                            
____________________________________________________________________________________________________
concatenate_4 (Concatenate)      (None, 175, 100)      0                                            
====================================================================================================
Total params: 1,267,900.0
Trainable params: 1,267,900.0
Non-trainable params: 0.0
____________________________________________________________________________________________________


_________________________________________________________________
Layer (type)                 Output Shape              Param #   
=================================================================
model_4 (Model)              (None, 175, 100)          1267900   
_________________________________________________________________
lstm_4 (LSTM)                (None, 175, 100)          80400     
_________________________________________________________________
global_max_pooling1d_4 (Glob (None, 100)               0         
_________________________________________________________________
dense_4 (Dense)              (None, 2)                 202       
=================================================================
Total params: 1,348,502.0
Trainable params: 1,348,502.0
Non-trainable params: 0.0
_________________________________________________________________
_________________________________________________________________
Layer (type)                 Output Shape              Param #   
=================================================================
model_4 (Model)              (None, 175, 100)          1267900   
_________________________________________________________________
lstm_4 (LSTM)                (None, 175, 100)          80400     
_________________________________________________________________
global_max_pooling1d_4 (Glob (None, 100)               0         
_________________________________________________________________
dense_4 (Dense)              (None, 2)                 202       
=================================================================
Total params: 1,348,502.0
Trainable params: 1,348,502.0
Non-trainable params: 0.0
_________________________________________________________________
submodel:
____________________________________________________________________________________________________
Layer (type)                     Output Shape          Param #     Connected to                     
====================================================================================================
embedding_5_input (InputLayer)   (None, 100)           0                                            
____________________________________________________________________________________________________
embedding_5 (Embedding)          (None, 100, 300)      277200                                       
____________________________________________________________________________________________________
dropout_29 (Dropout)             (None, 100, 300)      0                                            
____________________________________________________________________________________________________
dropout_30 (Dropout)             (None, 100, 300)      0                                            
____________________________________________________________________________________________________
dropout_31 (Dropout)             (None, 100, 300)      0                                            
____________________________________________________________________________________________________
dropout_32 (Dropout)             (None, 100, 300)      0                                            
____________________________________________________________________________________________________
dropout_33 (Dropout)             (None, 100, 300)      0                                            
____________________________________________________________________________________________________
dropout_34 (Dropout)             (None, 100, 300)      0                                            
____________________________________________________________________________________________________
dropout_35 (Dropout)             (None, 100, 300)      0                                            
____________________________________________________________________________________________________
skip_conv1d_25 (SkipConv1D)      (None, 100, 100)      150100                                       
____________________________________________________________________________________________________
skip_conv1d_26 (SkipConv1D)      (None, 100, 100)      150100                                       
____________________________________________________________________________________________________
skip_conv1d_27 (SkipConv1D)      (None, 100, 100)      150100                                       
____________________________________________________________________________________________________
skip_conv1d_28 (SkipConv1D)      (None, 100, 100)      150100                                       
____________________________________________________________________________________________________
skip_conv1d_29 (SkipConv1D)      (None, 100, 100)      150100                                       
____________________________________________________________________________________________________
skip_conv1d_30 (SkipConv1D)      (None, 100, 100)      150100                                       
____________________________________________________________________________________________________
conv1d_5 (Conv1D)                (None, 100, 100)      90100                                        
____________________________________________________________________________________________________
max_pooling1d_29 (MaxPooling1D)  (None, 25, 100)       0                                            
____________________________________________________________________________________________________
max_pooling1d_30 (MaxPooling1D)  (None, 25, 100)       0                                            
____________________________________________________________________________________________________
max_pooling1d_31 (MaxPooling1D)  (None, 25, 100)       0                                            
____________________________________________________________________________________________________
max_pooling1d_32 (MaxPooling1D)  (None, 25, 100)       0                                            
____________________________________________________________________________________________________
max_pooling1d_33 (MaxPooling1D)  (None, 25, 100)       0                                            
____________________________________________________________________________________________________
max_pooling1d_34 (MaxPooling1D)  (None, 25, 100)       0                                            
____________________________________________________________________________________________________
max_pooling1d_35 (MaxPooling1D)  (None, 25, 100)       0                                            
____________________________________________________________________________________________________
concatenate_5 (Concatenate)      (None, 175, 100)      0                                            
====================================================================================================
Total params: 1,267,900.0
Trainable params: 1,267,900.0
Non-trainable params: 0.0
____________________________________________________________________________________________________


_________________________________________________________________
Layer (type)                 Output Shape              Param #   
=================================================================
model_5 (Model)              (None, 175, 100)          1267900   
_________________________________________________________________
lstm_5 (LSTM)                (None, 175, 100)          80400     
_________________________________________________________________
global_max_pooling1d_5 (Glob (None, 100)               0         
_________________________________________________________________
dense_5 (Dense)              (None, 2)                 202       
=================================================================
Total params: 1,348,502.0
Trainable params: 1,348,502.0
Non-trainable params: 0.0
_________________________________________________________________
_________________________________________________________________
Layer (type)                 Output Shape              Param #   
=================================================================
model_5 (Model)              (None, 175, 100)          1267900   
_________________________________________________________________
lstm_5 (LSTM)                (None, 175, 100)          80400     
_________________________________________________________________
global_max_pooling1d_5 (Glob (None, 100)               0         
_________________________________________________________________
dense_5 (Dense)              (None, 2)                 202       
=================================================================
Total params: 1,348,502.0
Trainable params: 1,348,502.0
Non-trainable params: 0.0
_________________________________________________________________
submodel:
____________________________________________________________________________________________________
Layer (type)                     Output Shape          Param #     Connected to                     
====================================================================================================
embedding_6_input (InputLayer)   (None, 100)           0                                            
____________________________________________________________________________________________________
embedding_6 (Embedding)          (None, 100, 300)      277200                                       
____________________________________________________________________________________________________
dropout_36 (Dropout)             (None, 100, 300)      0                                            
____________________________________________________________________________________________________
dropout_37 (Dropout)             (None, 100, 300)      0                                            
____________________________________________________________________________________________________
dropout_38 (Dropout)             (None, 100, 300)      0                                            
____________________________________________________________________________________________________
dropout_39 (Dropout)             (None, 100, 300)      0                                            
____________________________________________________________________________________________________
dropout_40 (Dropout)             (None, 100, 300)      0                                            
____________________________________________________________________________________________________
dropout_41 (Dropout)             (None, 100, 300)      0                                            
____________________________________________________________________________________________________
dropout_42 (Dropout)             (None, 100, 300)      0                                            
____________________________________________________________________________________________________
skip_conv1d_31 (SkipConv1D)      (None, 100, 100)      150100                                       
____________________________________________________________________________________________________
skip_conv1d_32 (SkipConv1D)      (None, 100, 100)      150100                                       
____________________________________________________________________________________________________
skip_conv1d_33 (SkipConv1D)      (None, 100, 100)      150100                                       
____________________________________________________________________________________________________
skip_conv1d_34 (SkipConv1D)      (None, 100, 100)      150100                                       
____________________________________________________________________________________________________
skip_conv1d_35 (SkipConv1D)      (None, 100, 100)      150100                                       
____________________________________________________________________________________________________
skip_conv1d_36 (SkipConv1D)      (None, 100, 100)      150100                                       
____________________________________________________________________________________________________
conv1d_6 (Conv1D)                (None, 100, 100)      90100                                        
____________________________________________________________________________________________________
max_pooling1d_36 (MaxPooling1D)  (None, 25, 100)       0                                            
____________________________________________________________________________________________________
max_pooling1d_37 (MaxPooling1D)  (None, 25, 100)       0                                            
____________________________________________________________________________________________________
max_pooling1d_38 (MaxPooling1D)  (None, 25, 100)       0                                            
____________________________________________________________________________________________________
max_pooling1d_39 (MaxPooling1D)  (None, 25, 100)       0                                            
____________________________________________________________________________________________________
max_pooling1d_40 (MaxPooling1D)  (None, 25, 100)       0                                            
____________________________________________________________________________________________________
max_pooling1d_41 (MaxPooling1D)  (None, 25, 100)       0                                            
____________________________________________________________________________________________________
max_pooling1d_42 (MaxPooling1D)  (None, 25, 100)       0                                            
____________________________________________________________________________________________________
concatenate_6 (Concatenate)      (None, 175, 100)      0                                            
====================================================================================================
Total params: 1,267,900.0
Trainable params: 1,267,900.0
Non-trainable params: 0.0
____________________________________________________________________________________________________


_________________________________________________________________
Layer (type)                 Output Shape              Param #   
=================================================================
model_6 (Model)              (None, 175, 100)          1267900   
_________________________________________________________________
lstm_6 (LSTM)                (None, 175, 100)          80400     
_________________________________________________________________
global_max_pooling1d_6 (Glob (None, 100)               0         
_________________________________________________________________
dense_6 (Dense)              (None, 2)                 202       
=================================================================
Total params: 1,348,502.0
Trainable params: 1,348,502.0
Non-trainable params: 0.0
_________________________________________________________________
_________________________________________________________________
Layer (type)                 Output Shape              Param #   
=================================================================
model_6 (Model)              (None, 175, 100)          1267900   
_________________________________________________________________
lstm_6 (LSTM)                (None, 175, 100)          80400     
…
max_pooling1d_11 (MaxPooling1D)  (None, 25, 100)       0                                            
____________________________________________________________________________________________________
concatenate_1 (Concatenate)      (None, 275, 100)      0                                            
====================================================================================================
Total params: 1,718,300.0
Trainable params: 1,718,300.0
Non-trainable params: 0.0
____________________________________________________________________________________________________


_________________________________________________________________
Layer (type)                 Output Shape              Param #   
=================================================================
model_1 (Model)              (None, 275, 100)          1718300   
_________________________________________________________________
lstm_1 (LSTM)                (None, 275, 100)          80400     
_________________________________________________________________
global_max_pooling1d_1 (Glob (None, 100)               0         
_________________________________________________________________
dense_1 (Dense)              (None, 2)                 202       
=================================================================
Total params: 1,798,902.0
Trainable params: 1,798,902.0
Non-trainable params: 0.0
_________________________________________________________________
_________________________________________________________________
Layer (type)                 Output Shape              Param #   
=================================================================
model_1 (Model)              (None, 275, 100)          1718300   
_________________________________________________________________
lstm_1 (LSTM)                (None, 275, 100)          80400     
_________________________________________________________________
global_max_pooling1d_1 (Glob (None, 100)               0         
_________________________________________________________________
dense_1 (Dense)              (None, 2)                 202       
=================================================================
Total params: 1,798,902.0
Trainable params: 1,798,902.0
Non-trainable params: 0.0
_________________________________________________________________
submodel:
____________________________________________________________________________________________________
Layer (type)                     Output Shape          Param #     Connected to                     
====================================================================================================
embedding_2_input (InputLayer)   (None, 100)           0                                            
____________________________________________________________________________________________________
embedding_2 (Embedding)          (None, 100, 300)      277200                                       
____________________________________________________________________________________________________
dropout_12 (Dropout)             (None, 100, 300)      0                                            
____________________________________________________________________________________________________
dropout_13 (Dropout)             (None, 100, 300)      0                                            
____________________________________________________________________________________________________
dropout_14 (Dropout)             (None, 100, 300)      0                                            
____________________________________________________________________________________________________
dropout_15 (Dropout)             (None, 100, 300)      0                                            
____________________________________________________________________________________________________
dropout_16 (Dropout)             (None, 100, 300)      0                                            
____________________________________________________________________________________________________
dropout_17 (Dropout)             (None, 100, 300)      0                                            
____________________________________________________________________________________________________
dropout_18 (Dropout)             (None, 100, 300)      0                                            
____________________________________________________________________________________________________
dropout_19 (Dropout)             (None, 100, 300)      0                                            
____________________________________________________________________________________________________
dropout_20 (Dropout)             (None, 100, 300)      0                                            
____________________________________________________________________________________________________
dropout_21 (Dropout)             (None, 100, 300)      0                                            
____________________________________________________________________________________________________
dropout_22 (Dropout)             (None, 100, 300)      0                                            
____________________________________________________________________________________________________
skip_conv1d_11 (SkipConv1D)      (None, 100, 100)      90100                                        
____________________________________________________________________________________________________
skip_conv1d_12 (SkipConv1D)      (None, 100, 100)      120100                                       
____________________________________________________________________________________________________
skip_conv1d_13 (SkipConv1D)      (None, 100, 100)      120100                                       
____________________________________________________________________________________________________
skip_conv1d_14 (SkipConv1D)      (None, 100, 100)      120100                                       
____________________________________________________________________________________________________
skip_conv1d_15 (SkipConv1D)      (None, 100, 100)      150100                                       
____________________________________________________________________________________________________
skip_conv1d_16 (SkipConv1D)      (None, 100, 100)      150100                                       
____________________________________________________________________________________________________
skip_conv1d_17 (SkipConv1D)      (None, 100, 100)      150100                                       
____________________________________________________________________________________________________
skip_conv1d_18 (SkipConv1D)      (None, 100, 100)      150100                                       
____________________________________________________________________________________________________
skip_conv1d_19 (SkipConv1D)      (None, 100, 100)      150100                                       
____________________________________________________________________________________________________
skip_conv1d_20 (SkipConv1D)      (None, 100, 100)      150100                                       
____________________________________________________________________________________________________
conv1d_2 (Conv1D)                (None, 100, 100)      90100                                        
____________________________________________________________________________________________________
max_pooling1d_12 (MaxPooling1D)  (None, 25, 100)       0                                            
____________________________________________________________________________________________________
max_pooling1d_13 (MaxPooling1D)  (None, 25, 100)       0                                            
____________________________________________________________________________________________________
max_pooling1d_14 (MaxPooling1D)  (None, 25, 100)       0                                            
____________________________________________________________________________________________________
max_pooling1d_15 (MaxPooling1D)  (None, 25, 100)       0                                            
____________________________________________________________________________________________________
max_pooling1d_16 (MaxPooling1D)  (None, 25, 100)       0                                            
____________________________________________________________________________________________________
max_pooling1d_17 (MaxPooling1D)  (None, 25, 100)       0                                            
____________________________________________________________________________________________________
max_pooling1d_18 (MaxPooling1D)  (None, 25, 100)       0                                            
____________________________________________________________________________________________________
max_pooling1d_19 (MaxPooling1D)  (None, 25, 100)       0                                            
____________________________________________________________________________________________________
max_pooling1d_20 (MaxPooling1D)  (None, 25, 100)       0                                            
____________________________________________________________________________________________________
max_pooling1d_21 (MaxPooling1D)  (None, 25, 100)       0                                            
____________________________________________________________________________________________________
max_pooling1d_22 (MaxPooling1D)  (None, 25, 100)       0                                            
____________________________________________________________________________________________________
concatenate_2 (Concatenate)      (None, 275, 100)      0                                            
====================================================================================================
Total params: 1,718,300.0
Trainable params: 1,718,300.0
Non-trainable params: 0.0
____________________________________________________________________________________________________


_________________________________________________________________
Layer (type)                 Output Shape              Param #   
=================================================================
model_2 (Model)              (None, 275, 100)          1718300   
_________________________________________________________________
lstm_2 (LSTM)                (None, 275, 100)          80400     
_________________________________________________________________
global_max_pooling1d_2 (Glob (None, 100)               0         
_________________________________________________________________
dense_2 (Dense)              (None, 2)                 202       
=================================================================
Total params: 1,798,902.0
Trainable params: 1,798,902.0
Non-trainable params: 0.0
_________________________________________________________________
_________________________________________________________________
Layer (type)                 Output Shape              Param #   
=================================================================
model_2 (Model)              (None, 275, 100)          1718300   
_________________________________________________________________
lstm_2 (LSTM)                (None, 275, 100)          80400     
_________________________________________________________________
global_max_pooling1d_2 (Glob (None, 100)               0         
_________________________________________________________________
dense_2 (Dense)              (None, 2)                 202       
=================================================================
Total params: 1,798,902.0
Trainable params: 1,798,902.0
Non-trainable params: 0.0
_________________________________________________________________
submodel:
____________________________________________________________________________________________________
Layer (type)                     Output Shape          Param #     Connected to                     
====================================================================================================
embedding_3_input (InputLayer)   (None, 100)           0                                            
____________________________________________________________________________________________________
embedding_3 (Embedding)          (None, 100, 300)      277200                                       
____________________________________________________________________________________________________
dropout_23 (Dropout)             (None, 100, 300)      0                                            
____________________________________________________________________________________________________
dropout_24 (Dropout)             (None, 100, 300)      0                                            
____________________________________________________________________________________________________
dropout_25 (Dropout)             (None, 100, 300)      0                                            
____________________________________________________________________________________________________
dropout_26 (Dropout)             (None, 100, 300)      0                                            
____________________________________________________________________________________________________
dropout_27 (Dropout)             (None, 100, 300)      0                                            
____________________________________________________________________________________________________
dropout_28 (Dropout)             (None, 100, 300)      0                                            
____________________________________________________________________________________________________
dropout_29 (Dropout)             (None, 100, 300)      0                                            
____________________________________________________________________________________________________
dropout_30 (Dropout)             (None, 100, 300)      0                                            
____________________________________________________________________________________________________
dropout_31 (Dropout)             (None, 100, 300)      0                                            
____________________________________________________________________________________________________
dropout_32 (Dropout)             (None, 100, 300)      0                                            
____________________________________________________________________________________________________
dropout_33 (Dropout)             (None, 100, 300)      0                                            
____________________________________________________________________________________________________
skip_conv1d_21 (SkipConv1D)      (None, 100, 100)      90100                                        
____________________________________________________________________________________________________
skip_conv1d_22 (SkipConv1D)      (None, 100, 100)      120100                                       
____________________________________________________________________________________________________
skip_conv1d_23 (SkipConv1D)      (None, 100, 100)      120100                                       
____________________________________________________________________________________________________
skip_conv1d_24 (SkipConv1D)      (None, 100, 100)      120100                                       
____________________________________________________________________________________________________
skip_conv1d_25 (SkipConv1D)      (None, 100, 100)      150100                                       
____________________________________________________________________________________________________
skip_conv1d_26 (SkipConv1D)      (None, 100, 100)      150100                                       
____________________________________________________________________________________________________
skip_conv1d_27 (SkipConv1D)      (None, 100, 100)      150100                                       
____________________________________________________________________________________________________
skip_conv1d_28 (SkipConv1D)      (None, 100, 100)      150100                                       
____________________________________________________________________________________________________
skip_conv1d_29 (SkipConv1D)      (None, 100, 100)      150100                                       
____________________________________________________________________________________________________
skip_conv1d_30 (SkipConv1D)      (None, 100, 100)      150100                                       
____________________________________________________________________________________________________
conv1d_3 (Conv1D)                (None, 100, 100)      90100                                        
____________________________________________________________________________________________________
max_pooling1d_23 (MaxPooling1D)  (None, 25, 100)       0                                            
____________________________________________________________________________________________________
max_pooling1d_24 (MaxPooling1D)  (None, 25, 100)       0                                            
____________________________________________________________________________________________________
max_pooling1d_25 (MaxPooling1D)  (None, 25, 100)       0                                            
____________________________________________________________________________________________________
max_pooling1d_26 (MaxPooling1D)  (None, 25, 100)       0                                            
____________________________________________________________________________________________________
max_pooling1d_27 (MaxPooling1D)  (None, 25, 100)       0                                            
____________________________________________________________________________________________________
max_pooling1d_28 (MaxPooling1D)  (None, 25, 100)       0                                            
____________________________________________________________________________________________________
max_pooling1d_29 (MaxPooling1D)  (None, 25, 100)       0                                            
____________________________________________________________________________________________________
max_pooling1d_30 (MaxPooling1D)  (None, 25, 100)       0                                            
____________________________________________________________________________________________________
max_pooling1d_31 (MaxPooling1D)  (None, 25, 100)       0                                            
____________________________________________________________________________________________________
max_pooling1d_32 (MaxPooling1D)  (None, 25, 100)       0                                            
____________________________________________________________________________________________________
max_pooling1d_33 (MaxPooling1D)  (None, 25, 100)       0                                            
____________________________________________________________________________________________________
concatenate_3 (Concatenate)      (None, 275, 100)      0                                            
====================================================================================================
Total params: 1,718,300.0
Trainable params: 1,718,300.0
Non-trainable params: 0.0
____________________________________________________________________________________________________


_________________________________________________________________
Layer (type)                 Output Shape              Param #   
=================================================================
model_3 (Model)              (None, 275, 100)          1718300   
_________________________________________________________________
lstm_3 (LSTM)                (None, 275, 100)          80400     
_________________________________________________________________
global_max_pooling1d_3 (Glob (None, 100)               0         
_________________________________________________________________
dense_3 (Dense)              (None, 2)                 202       
=================================================================
Total params: 1,798,902.0
Trainable params: 1,798,902.0
Non-trainable params: 0.0
_________________________________________________________________
_________________________________________________________________
Layer (type)                 Output Shape              Param #   
=================================================================
model_3 (Model)              (None, 275, 100)          1718300   
_________________________________________________________________
lstm_3 (LSTM)                (None, 275, 100)          80400     
_________________________________________________________________
global_max_pooling1d_3 (Glob (None, 100)               0         
_________________________________________________________________
dense_3 (Dense)              (None, 2)                 202       
=================================================================
Total params: 1,798,902.0
Trainable params: 1,798,902.0
Non-trainable params: 0.0
_________________________________________________________________
submodel:
____________________________________________________________________________________________________
Layer (type)                     Output Shape          Param #     Connected to                     
====================================================================================================
embedding_4_input (InputLayer)   (None, 100)           0                                            
____________________________________________________________________________________________________
embedding_4 (Embedding)          (None, 100, 300)      277200                                       
____________________________________________________________________________________________________
dropout_34 (Dropout)             (None, 100, 300)      0                                            
____________________________________________________________________________________________________
dropout_35 (Dropout)             (None, 100, 300)      0                                            
____________________________________________________________________________________________________
dropout_36 (Dropout)             (None, 100, 300)      0                                            
____________________________________________________________________________________________________
dropout_37 (Dropout)             (None, 100, 300)      0                                            
____________________________________________________________________________________________________
dropout_38 (Dropout)             (None, 100, 300)      0                                            
____________________________________________________________________________________________________
dropout_39 (Dropout)             (None, 100, 300)      0                                            
____________________________________________________________________________________________________
dropout_40 (Dropout)             (None, 100, 300)      0                                            
____________________________________________________________________________________________________
dropout_41 (Dropout)             (None, 100, 300)      0                                            
____________________________________________________________________________________________________
dropout_42 (Dropout)             (None, 100, 300)      0                                            
____________________________________________________________________________________________________
dropout_43 (Dropout)             (None, 100, 300)      0                                            
____________________________________________________________________________________________________
dropout_44 (Dropout)             (None, 100, 300)      0                                            
____________________________________________________________________________________________________
skip_conv1d_31 (SkipConv1D)      (None, 100, 100)      90100                                        
____________________________________________________________________________________________________
skip_conv1d_32 (SkipConv1D)      (None, 100, 100)      120100                                       
____________________________________________________________________________________________________
skip_conv1d_33 (SkipConv1D)      (None, 100, 100)      120100                                       
____________________________________________________________________________________________________
skip_conv1d_34 (SkipConv1D)      (None, 100, 100)      120100                                       
____________________________________________________________________________________________________
skip_conv1d_35 (SkipConv1D)      (None, 100, 100)      150100                                       
____________________________________________________________________________________________________
skip_conv1d_36 (SkipConv1D)      (None, 100, 100)      150100                                       
____________________________________________________________________________________________________
skip_conv1d_37 (SkipConv1D)      (None, 100, 100)      150100                                       
____________________________________________________________________________________________________
skip_conv1d_38 (SkipConv1D)      (None, 100, 100)      150100                                       
____________________________________________________________________________________________________
skip_conv1d_39 (SkipConv1D)      (None, 100, 100)      150100                                       
____________________________________________________________________________________________________
skip_conv1d_40 (SkipConv1D)      (None, 100, 100)      150100                                       
____________________________________________________________________________________________________
conv1d_4 (Conv1D)                (None, 100, 100)      90100                                        
____________________________________________________________________________________________________
max_pooling1d_34 (MaxPooling1D)  (None, 25, 100)       0                                            
____________________________________________________________________________________________________
max_pooling1d_35 (MaxPooling1D)  (None, 25, 100)       0                                            
____________________________________________________________________________________________________
max_pooling1d_36 (MaxPooling1D)  (None, 25, 100)       0                                            
____________________________________________________________________________________________________
max_pooling1d_37 (MaxPooling1D)  (None, 25, 100)       0                                            
____________________________________________________________________________________________________
max_pooling1d_38 (MaxPooling1D)  (None, 25, 100)       0                                            
____________________________________________________________________________________________________
max_pooling1d_39 (MaxPooling1D)  (None, 25, 100)       0                                            
____________________________________________________________________________________________________
max_pooling1d_40 (MaxPooling1D)  (None, 25, 100)       0                                            
____________________________________________________________________________________________________
max_pooling1d_41 (MaxPooling1D)  (None, 25, 100)       0                                            
____________________________________________________________________________________________________
max_pooling1d_42 (MaxPooling1D)  (None, 25, 100)       0                                            
____________________________________________________________________________________________________
max_pooling1d_43 (MaxPooling1D)  (None, 25, 100)       0                                            
____________________________________________________________________________________________________
max_pooling1d_44 (MaxPooling1D)  (None, 25, 100)       0                                            
____________________________________________________________________________________________________
concatenate_4 (Concatenate)      (None, 275, 100)      0                                            
====================================================================================================
Total params: 1,718,300.0
Trainable params: 1,718,300.0
Non-trainable params: 0.0
____________________________________________________________________________________________________


_________________________________________________________________
Layer (type)                 Output Shape              Param #   
=================================================================
model_4 (Model)              (None, 275, 100)          1718300   
_________________________________________________________________
lstm_4 (LSTM)                (None, 275, 100)          80400     
_________________________________________________________________
global_max_pooling1d_4 (Glob (None, 100)               0         
_________________________________________________________________
dense_4 (Dense)              (None, 2)                 202       
=================================================================
Total params: 1,798,902.0
Trainable params: 1,798,902.0
Non-trainable params: 0.0
_________________________________________________________________
_________________________________________________________________
Layer (type)                 Output Shape              Param #   
=================================================================
model_4 (Model)              (None, 275, 100)          1718300   
_________________________________________________________________
lstm_4 (LSTM)                (None, 275, 100)          80400     
_________________________________________________________________
global_max_pooling1d_4 (Glob (None, 100)               0         
_________________________________________________________________
dense_4 (Dense)              (None, 2)                 202       
=================================================================
Total params: 1,798,902.0
Trainable params: 1,798,902.0
Non-trainable params: 0.0
_________________________________________________________________
submodel:
____________________________________________________________________________________________________
Layer (type)                     Output Shape          Param #     Connected to                     
====================================================================================================
embedding_5_input (InputLayer)   (None, 100)           0                                            
____________________________________________________________________________________________________
embedding_5 (Embedding)          (None, 100, 300)      277200                                       
____________________________________________________________________________________________________
dropout_45 (Dropout)             (None, 100, 300)      0                                            
____________________________________________________________________________________________________
dropout_46 (Dropout)             (None, 100, 300)      0                                            
____________________________________________________________________________________________________
dropout_47 (Dropout)             (None, 100, 300)      0                                            
____________________________________________________________________________________________________
dropout_48 (Dropout)             (None, 100, 300)      0                                            
____________________________________________________________________________________________________
dropout_49 (Dropout)             (None, 100, 300)      0                                            
____________________________________________________________________________________________________
dropout_50 (Dropout)             (None, 100, 300)      0                                            
____________________________________________________________________________________________________
dropout_51 (Dropout)             (None, 100, 300)      0                                            
____________________________________________________________________________________________________
dropout_52 (Dropout)             (None, 100, 300)      0                                            
____________________________________________________________________________________________________
dropout_53 (Dropout)             (None, 100, 300)      0                                            
____________________________________________________________________________________________________
dropout_54 (Dropout)             (None, 100, 300)      0                                            
____________________________________________________________________________________________________
dropout_55 (Dropout)             (None, 100, 300)      0                                            
____________________________________________________________________________________________________
skip_conv1d_41 (SkipConv1D)      (None, 100, 100)      90100                                        
____________________________________________________________________________________________________
skip_conv1d_42 (SkipConv1D)      (None, 100, 100)      120100                                       
____________________________________________________________________________________________________
skip_conv1d_43 (SkipConv1D)      (None, 100, 100)      120100                                       
____________________________________________________________________________________________________
skip_conv1d_44 (SkipConv1D)      (None, 100, 100)      120100                                       
____________________________________________________________________________________________________
skip_conv1d_45 (SkipConv1D)      (None, 100, 100)      150100                                       
____________________________________________________________________________________________________
skip_conv1d_46 (SkipConv1D)      (None, 100, 100)      150100                                       
____________________________________________________________________________________________________
skip_conv1d_47 (SkipConv1D)      (None, 100, 100)      150100                                       
____________________________________________________________________________________________________
skip_conv1d_48 (SkipConv1D)      (None, 100, 100)      150100                                       
____________________________________________________________________________________________________
skip_conv1d_49 (SkipConv1D)      (None, 100, 100)      150100                                       
____________________________________________________________________________________________________
skip_conv1d_50 (SkipConv1D)      (None, 100, 100)      150100                                       
____________________________________________________________________________________________________
conv1d_5 (Conv1D)                (None, 100, 100)      90100                                        
____________________________________________________________________________________________________
max_pooling1d_45 (MaxPooling1D)  (None, 25, 100)       0                                            
____________________________________________________________________________________________________
max_pooling1d_46 (MaxPooling1D)  (None, 25, 100)       0                                            
____________________________________________________________________________________________________
max_pooling1d_47 (MaxPooling1D)  (None, 25, 100)       0                                            
____________________________________________________________________________________________________
max_pooling1d_48 (MaxPooling1D)  (None, 25, 100)       0                                            
____________________________________________________________________________________________________
max_pooling1d_49 (MaxPooling1D)  (None, 25, 100)       0                                            
____________________________________________________________________________________________________
max_pooling1d_50 (MaxPooling1D)  (None, 25, 100)       0                                            
____________________________________________________________________________________________________
max_pooling1d_51 (MaxPooling1D)  (None, 25, 100)       0                                            
____________________________________________________________________________________________________
max_pooling1d_52 (MaxPooling1D)  (None, 25, 100)       0                                            
____________________________________________________________________________________________________
max_pooling1d_53 (MaxPooling1D)  (None, 25, 100)       0                                            
____________________________________________________________________________________________________
max_pooling1d_54 (MaxPooling1D)  (None, 25, 100)       0                                            
____________________________________________________________________________________________________
max_pooling1d_55 (MaxPooling1D)  (None, 25, 100)       0                                            
____________________________________________________________________________________________________
concatenate_5 (Concatenate)      (None, 275, 100)      0                                            
====================================================================================================
Total params: 1,718,300.0
Trainable params: 1,718,300.0
Non-trainable params: 0.0
____________________________________________________________________________________________________


_________________________________________________________________
Layer (type)                 Output Shape              Param #   
=================================================================
model_5 (Model)              (None, 275, 100)          1718300   
_________________________________________________________________
lstm_5 (LSTM)                (None, 275, 100)          80400     
_________________________________________________________________
global_max_pooling1d_5 (Glob (None, 100)               0         
_________________________________________________________________
dense_5 (Dense)              (None, 2)                 202       
=================================================================
Total params: 1,798,902.0
Trainable params: 1,798,902.0
Non-trainable params: 0.0
_________________________________________________________________
_________________________________________________________________
Layer (type)                 Output Shape              Param #   
=================================================================
model_5 (Model)              (None, 275, 100)          1718300   
_________________________________________________________________
lstm_5 (LSTM)                (None, 275, 100)          80400     
_________________________________________________________________
global_max_pooling1d_5 (Glob (None, 100)               0         
_________________________________________________________________
dense_5 (Dense)              (None, 2)                 202       
=================================================================
Total params: 1,798,902.0
Trainable params: 1,798,902.0
Non-trainable params: 0.0
_________________________________________________________________
submodel:
____________________________________________________________________________________________________
Layer (type)                     Output Shape          Param #     Connected to                     
====================================================================================================
embedding_6_input (InputLayer)   (None, 100)           0                                            
____________________________________________________________________________________________________
embedding_6 (Embedding)          (None, 100, 300)      277200                                       
____________________________________________________________________________________________________
dropout_56 (Dropout)             (None, 100, 300)      0                                            
____________________________________________________________________________________________________
dropout_57 (Dropout)             (None, 100, 300)      0                                            
____________________________________________________________________________________________________
dropout_58 (Dropout)             (None, 100, 300)      0                                            
____________________________________________________________________________________________________
dropout_59 (Dropout)             (None, 100, 300)      0                                            
____________________________________________________________________________________________________
dropout_60 (Dropout)             (None, 100, 300)      0                                            
____________________________________________________________________________________________________
dropout_61 (Dropout)             (None, 100, 300)      0                                            
____________________________________________________________________________________________________
dropout_62 (Dropout)             (None, 100, 300)      0                                            
____________________________________________________________________________________________________
dropout_63 (Dropout)             (None, 100, 300)      0                                            
____________________________________________________________________________________________________
dropout_64 (Dropout)             (None, 100, 300)      0                                            
____________________________________________________________________________________________________
dropout_65 (Dropout)             (None, 100, 300)      0                                            
____________________________________________________________________________________________________
dropout_66 (Dropout)             (None, 100, 300)      0                                            
____________________________________________________________________________________________________
skip_conv1d_51 (SkipConv1D)      (None, 100, 100)      90100                                        
____________________________________________________________________________________________________
skip_conv1d_52 (SkipConv1D)      (None, 100, 100)      120100                                       
____________________________________________________________________________________________________
skip_conv1d_53 (SkipConv1D)      (None, 100, 100)      120100                                       
____________________________________________________________________________________________________
skip_conv1d_54 (SkipConv1D)      (None, 100, 100)      120100                                       
____________________________________________________________________________________________________
skip_conv1d_55 (SkipConv1D)      (None, 100, 100)      150100                                       
____________________________________________________________________________________________________
skip_conv1d_56 (SkipConv1D)      (None, 100, 100)      150100                                       
____________________________________________________________________________________________________
skip_conv1d_57 (SkipConv1D)      (None, 100, 100)      150100                                       
____________________________________________________________________________________________________
skip_conv1d_58 (SkipConv1D)      (None, 100, 100)      150100                                       
____________________________________________________________________________________________________
skip_conv1d_59 (SkipConv1D)      (None, 100, 100)      150100                                       
____________________________________________________________________________________________________
skip_conv1d_60 (SkipConv1D)      (None, 100, 100)      150100                                       
____________________________________________________________________________________________________
conv1d_6 (Conv1D)                (None, 100, 100)      90100                                        
____________________________________________________________________________________________________
max_pooling1d_56 (MaxPooling1D)  (None, 25, 100)       0                                            
____________________________________________________________________________________________________
max_pooling1d_57 (MaxPooling1D)  (None, 25, 100)       0                                            
____________________________________________________________________________________________________
max_pooling1d_58 (MaxPooling1D)  (None, 25, 100)       0                                            
____________________________________________________________________________________________________
max_pooling1d_59 (MaxPooling1D)  (None, 25, 100)       0                                            
____________________________________________________________________________________________________
max_pooling1d_60 (MaxPooling1D)  (None, 25, 100)       0                                            
____________________________________________________________________________________________________
max_pooling1d_61 (MaxPooling1D)  (None, 25, 100)       0                                            
____________________________________________________________________________________________________
max_pooling1d_62 (MaxPooling1D)  (None, 25, 100)       0                                            
____________________________________________________________________________________________________
max_pooling1d_63 (MaxPooling1D)  (None, 25, 100)       0                                            
____________________________________________________________________________________________________
max_pooling1d_64 (MaxPooling1D)  (None, 25, 100)       0                                            
____________________________________________________________________________________________________
max_pooling1d_65 (MaxPooling1D)  (None, 25, 100)       0                                            
____________________________________________________________________________________________________
max_pooling1d_66 (MaxPooling1D)  (None, 25, 100)       0                                            
____________________________________________________________________________________________________
concatenate_6 (Concatenate)      (None, 275, 100)      0                                            
====================================================================================================
Total params: 1,718,300.0
Trainable params: 1,718,300.0
Non-trainable params: 0.0
____________________________________________________________________________________________________


_________________________________________________________________
Layer (type)                 Output Shape              Param #   
=================================================================
model_6 (Model)              (None, 275, 100)          1718300   
_________________________________________________________________
lstm_6 (LSTM)                (None, 275, 100)          80400     
_________________________________________________________________
global_max_pooling1d_6 (Glob (None, 100)               0         
_________________________________________________________________
dense_6 (Dense)              (None, 2)                 202       
=================================================================
Total params: 1,798,902.0
Trainable params: 1,798,902.0
Non-trainable params: 0.0
_________________________________________________________________
_________________________________________________________________
Layer (type)                 Output Shape              Param #   
=================================================================
model_6 (Model)              (None, 275, 100)          1718300   
_________________________________________________________________
lstm_6 (LSTM)                (None, 275, 100)          80400     
_________________________________________________________________
global_max_pooling1d_6 (Glob (None, 100)               0         
_________________________________________________________________
dense_6 (Dense)              (None, 2)                 202       
=================================================================
Total params: 1,798,902.0
Trainable params: 1,798,902.0
Non-trainable params: 0.0
_________________________________________________________________
complete 2017-11-25 01:33:23.956133
<<< completed at Sat 25 Nov 01:33:25 GMT 2017: 
