///////////////////////////// gamback, multi cnn ///////////////////////////////////////////////////
__________________________________________________________________________________________________
Layer (type)                    Output Shape         Param #     Connected to                     
==================================================================================================
embedding_1_input (InputLayer)  (None, 100)          0                                            
__________________________________________________________________________________________________
embedding_1 (Embedding)         (None, 100, 300)     1367400     embedding_1_input[0][0]          
__________________________________________________________________________________________________
conv1d_1 (Conv1D)               (None, 100, 100)     60100       embedding_1[0][0]                
__________________________________________________________________________________________________
conv1d_2 (Conv1D)               (None, 100, 100)     60100       embedding_1[0][0]                
__________________________________________________________________________________________________
conv1d_3 (Conv1D)               (None, 100, 100)     120100      embedding_1[0][0]                
__________________________________________________________________________________________________
concatenate_1 (Concatenate)     (None, 300, 100)     0           conv1d_1[0][0]                   
                                                                 conv1d_2[0][0]                   
                                                                 conv1d_3[0][0]                   
==================================================================================================
Total params: 1,607,700
Trainable params: 1,607,700
Non-trainable params: 0
__________________________________________________________________________________________________
Backend Qt5Agg is interactive backend. Turning interactive mode on.
_________________________________________________________________
Layer (type)                 Output Shape              Param #   
=================================================================
model_1 (Model)              (None, 300, 100)          1607700   
_________________________________________________________________
max_pooling1d_1 (MaxPooling1 (None, 75, 100)           0         
_________________________________________________________________
flatten_1 (Flatten)          (None, 7500)              0         
_________________________________________________________________
dense_1 (Dense)              (None, 2)                 15002     
=================================================================
Total params: 1,622,702
Trainable params: 1,622,702
Non-trainable params: 0






//////////////////////// eswc cnn+gru ////////////////////////

_________________________________________________________________
Layer (type)                 Output Shape              Param #   
=================================================================
embedding_1 (Embedding)      (None, 100, 300)          1367400   
_________________________________________________________________
dropout_1 (Dropout)          (None, 100, 300)          0         
_________________________________________________________________
conv1d_1 (Conv1D)            (None, 100, 100)          120100    
_________________________________________________________________
max_pooling1d_1 (MaxPooling1 (None, 25, 100)           0         
_________________________________________________________________
gru_1 (GRU)                  (None, 25, 100)           60300     
_________________________________________________________________
global_max_pooling1d_1 (Glob (None, 100)               0         
_________________________________________________________________
dense_1 (Dense)              (None, 2)                 202       
=================================================================
Total params: 1,548,002
Trainable params: 1,548,002
Non-trainable params: 0
_________________________________________________________________

